model/saved/naive_ddqn.pth (torch, 154259 bytes, 9 tensors)

weight f4 [64, 3]
00000000: b14e 223e b438 00be b5bf 873d 970c 0bbf
00000010: 41d9 4cbd d2a0 dfbe 7b12 af3e d321 ecbc
00000020: 7c50 a33e 4b74 823d 09cc 653e fb23 7c3e
00000030: e254 00bf c530 c93c 855c fabd 3031 02be
00000040: 4eb4 0ebe 96dc 06bf f61b e4be e564 e13d
00000050: 294d 08bf 9b0b f43e a03c cabd 6a91 c63e
00000060: 7222 86be f0d9 e23e a2ef fdbd 6fa1 e7be
00000070: 9e36 0dbe a6c0 bf3e e487 ecbe 46c4 913e
00000080: a5c7 413e 12c7 8e3e bfec c63d 37e0 f0be
00000090: 52ab a9be 523b 493e 9c36 31be 100c f03e
000000a0: 23b9 e03d 8c33 4d3c 212f c1be 3cc9 9bbe
000000b0: 0b3e a7bc 1b52 c2be 45eb 823e a643 763d
000000c0: 2416 62bd 3f4f c0be caf5 58be 47ff f2be
000000d0: 1187 483c 6688 ffbe e8f7 0abf f3b1 61bd
000000e0: 17a4 ba3e c049 043e 5be9 0dbf 0dd6 41be
000000f0: e2ff 95be e245 2ebe 530f 573e 1ef8 cfbe
00000100: d911 b73e fd28 3ebd d517 e23e c5bd db3d
00000110: 18fc 013f b944 9b3e 46ec 2abe 403b a2be
00000120: 0af9 35be ba53 c53e 2453 3dbe 4f2a 0d3f
00000130: b9c9 c5be 3778 c53e 5a3d e13e 7530 ce3e
00000140: e8f6 973e 2145 7c3e 0f2f 103f f7db b3be
00000150: fe8b 083f 7f00 cb3e 36b1 193e ade6 5a3b
00000160: f8cc 8a3e 7490 ab3e 7402 0a3e 8d14 da3c
00000170: 6d35 08bf 1076 c13e 4200 0b3f dc49 213e
00000180: 518c 1c3e 5b27 063f dc21 3abe 86c4 093f
00000190: 572e 11bf 193b 8c3e c350 a6be 06b7 a9be
000001a0: 3e1a fbbe 533e fbbe 21f2 f3be 0424 fcbd
000001b0: 9b81 c4bd d10b d33b c809 dc3e 0c97 81bd
000001c0: e79c 043e 9fc2 b9be 8e28 33bd 8519 103f
000001d0: f1e8 93be e45a 26be dce9 88be 8daf 3c3d
000001e0: e909 5f3e 9ec3 f93e 6bbb f7be 37d6 12bf
000001f0: e6cb dfbe aaf0 1bbd 36f1 823e fb0b 62be
00000200: b164 f5be fa6f 9b3e aadb 18be 3517 d33d
00000210: ca7e f43e 5d16 bb3e 7d79 d3be 8c3a 803e
00000220: ebed bdbd 84f3 8cbe 3f67 aa3e 2168 71be
00000230: 1262 f13d e0df f63e 625c aa3d 5c53 45be
00000240: b5a1 7b3e 35e7 dfbe df42 f0be 5c60 19be
00000250: 0abd cabe 2224 0bbd b979 1fbe f755 edbe
00000260: 34f9 093f fb8d 063f 5a36 dd3e b5fa b43e
00000270: 2101 b23e fd5a 843e 4498 06be 8d67 863e
00000280: ddf5 b83e 462a 82be 806f 0abd b1de 07bf
00000290: f929 0e3f 526c bfba ca1e d33e ccf9 b03d
000002a0: 50bb f43e 3fd5 543d 4b57 133f b78e cb3e
000002b0: 4eca 6c3d 07d2 0dbf 1544 c83e 6173 97be
000002c0: 5710 d83e fcfd e53c 0aae bf3e e582 df3e
000002d0: 1d44 e6be ba14 db3e 72cb a9be 97e5 a43e
000002e0: b87e 4d3e 829b 47be 39da f43e a4e1 cebe
000002f0: 61ad b9bc 9639 97be b685 ddbe e399 f1be
0.15850331 -0.1252163 0.06628362 -0.54316086 -0.050011877 -0.43677384 0.34193787 -0.028824722
0.31897342 0.063698374 0.22441114 0.246231 -0.5012952 0.024559388 -0.12224678 -0.12714076
-0.13935968 -0.5268034 -0.44552583 0.11005572 -0.5324274 0.47665104 -0.098748446 0.38782817
-0.26198155 0.44306898 -0.12399222 -0.45240352 -0.13790366 0.37451667 -0.46197426 0.28470057
0.18923815 0.27886254 0.097131245 -0.47046062 -0.3313852 0.19651535 -0.17305988 0.46884203
0.10972812 0.012524497 -0.3773127 -0.30426967 -0.020415327 -0.37953267 0.2557012 0.06012311
-0.055196896 -0.3756046 -0.21187511 -0.47460386 0.012239234 -0.4990875 -0.54284525 -0.055101346
0.36453316 0.12918758 -0.554342 -0.1892931 -0.29296786 -0.17018846 0.2100194 -0.40618986
0.35755804 -0.04642581 0.44158807 0.10729555 0.5077529 0.3032587 -0.16691694 -0.3168583
-0.17770782 0.3854044 -0.18488747 0.5514268 -0.38630465 0.3856828 0.4399212 0.40271345
0.29680562 0.24635746 0.56321806 -0.35128757 0.5333861 0.39648816 0.15009007 0.0033401654
0.27109504 0.33508646 0.13477498 0.026621128 -0.5320652 0.37785387 0.5429727 0.15750831
0.15287901 0.524038 -0.18176979 0.53815496 -0.56711334 0.27388838 -0.3248349 -0.33147448
-0.4904346 -0.49070987 -0.47645667 -0.12311557 -0.09595033 0.0064406176 0.42976213 -0.06327638
0.12950478 -0.36281297 -0.043739848 0.5628894 -0.28888658 -0.1624561 -0.2674092 0.046065856
0.21781124 0.48782057 -0.48385176 -0.57358116 -0.4371025 -0.038071312 0.25574654 -0.22074883
-0.47928384 0.3035887 -0.14927545 0.10307161 0.47752982 0.365405 -0.41303626 0.25044668
-0.09273895 -0.27529538 0.33281896 -0.23574878 0.117862836 0.48217678 0.08318402 -0.1927008
0.24573405 -0.43731084 -0.4692602 -0.14978164 -0.3959735 -0.033970006 -0.15573777 -0.46354648
0.5389588 0.52560395 0.4320553 0.35347524 0.34766486 0.2585067 -0.13144022 0.26250878
0.3612508 -0.25422877 -0.03379774 -0.53074175 0.55532795 -0.0014604426 0.41234428 0.08641395
0.47799158 0.05196118 0.57555073 0.3975732 0.05781012 -0.553986 0.39114442 -0.29580215
0.42199966 0.02807521 0.3743747 0.43654552 -0.4497384 0.4278925 -0.3316303 0.32206413
0.2006787 -0.19492915 0.4782274 -0.40406525 -0.022665681 -0.29536122 -0.43266076 -0.4718772

bias f4 [64]
00000000: ccb8 04bf e9e6 05bf c7b3 b83e 0044 073f
00000010: 3249 f8be 237e 12bf 9553 63be df99 0fbf
00000020: 203f 9d3d cb9b 0cbf 4d7e 0cbe cae8 243e
00000030: ef34 0bbf 8ea4 bdbe acfe cfbe d318 d7be
00000040: ce73 80be e80b c7be 2aff 063e 0cf8 0abf
00000050: a9c9 793c 7b79 39bd 854a f43e 7b30 d63e
00000060: 12b8 61bd e2f0 a0be 7b9c 0bbf 74f2 be3e
00000070: 1d30 9dbd d61e 90be db97 05bf f565 89be
00000080: 48f5 e23e 4214 9c3e 7239 00bf f343 0bbb
00000090: 7797 9dbe d3be c2be f794 173e f476 4ebe
000000a0: ce05 d7be f185 aa3d 6005 debe 825d 11bf
000000b0: 53d2 84bd bbe8 283e fa82 cf3e cb34 ebbc
000000c0: 24d7 5ebe c190 f1be 4c21 dbbd cc49 bfbe
000000d0: f717 7fbe 7b10 10bf a3b8 303e 3265 04be
000000e0: 4f0a b73e 88c4 ed3e 815c ab3e f91c 0fbf
000000f0: 1c3c 70be de8d 103e 8d6e e6bd 5abe 023f
-0.5184448 -0.52305466 0.3607466 0.52838135 -0.48493344 -0.5722372 -0.22199853 -0.56094164
0.07678056 -0.5492522 -0.13720055 0.16104427 -0.54377645 -0.37039608 -0.40623987 -0.42011127
-0.25088352 -0.3887627 0.13183275 -0.5428474 0.015245833 -0.04528187 0.47713104 0.41833863
-0.055107184 -0.3143378 -0.54535645 0.37294352 -0.076751925 -0.28148526 -0.5218484 -0.268356
0.4432776 0.30484205 -0.50087655 -0.0021250218 -0.3077962 -0.38036212 0.1480292 -0.20162565
-0.41996616 0.083263285 -0.43363476 -0.56783307 -0.06485429 0.1649503 0.40529615 -0.028711697
-0.21761757 -0.4718075 -0.1069971 -0.3736099 -0.24911486 -0.5627515 0.17257933 -0.12929228
0.35750052 0.46439004 0.33469012 -0.55903584 -0.2346043 0.14116618 -0.11251555 0.51071703

weight f4 [256, 64]
00000000: ea6b bd3d c317 24bd f3b8 063d d9f5 88bc
00000010: dfa0 c33d 4fbc 23bd 9d60 e9bc 3354 e6bd
00000020: 3f13 0bbd 60e0 b9bd bdce 853d 48af 9fbd
00000030: e882 8abd a4dd b43d f8ce e2bd 2062 e3bd
00000040: 78c1 bdbd c464 fcba 7c3d 5abd 8862 64bd
00000050: b028 8fbd 0f42 3ebc 5f72 47bd 892a b43d
00000060: 2ab2 40bc c549 3e3d e6ce 4ebd 4aef b9bc
00000070: a725 d63d 20ea e03b cd1c 19bd 7c76 48bb
00000080: 262e bcbd c938 aebd 8f7d 2e3d 4cf9 d4bd
00000090: b823 12bc c4f7 f73c 2e9b 47bb 0cd9 21bd
000000a0: de34 1b3d 56bd 91bd 40ed a7bd 74a0 85bd
000000b0: 6c05 17bb a65d 893d fc30 013c fde3 00be
000000c0: e2ff 72bd 2455 98bd 186b 98bd 1e46 f5bd
000000d0: 6d71 d1bc 8ace 2cbc 3e05 af3d 6eb9 893c
000000e0: b120 c83d bd57 edbd cf63 24bd 7eee e9bd
000000f0: 906e b6bd 9c44 c7bc 3dc0 efbd c2e9 743c
00000100: 2356 003d 053a f73d 9ad8 c63d b91e 8e3d
00000110: b2c3 ebbd 5327 ee3d 5964 64bd 4c76 efbd
00000120: e3e5 dcbd ab49 e93d d8bc 583c 3c33 823b
00000130: b033 3fbc adc3 223d 0c0d ec3d 211d d83d
00000140: 6a95 333d d236 fa3c 52da f9bd e9f7 6cbb
00000150: ba03 b83d 758a 783d 710b 8cbc e3e3 4f3d
00000160: 9f10 803d c396 5b3c e01e e7bd 074e 9ebd
00000170: cec0 ef3d b007 cabd 268b 42bd 2bdc 34bd
00000180: 34a7 a33d 1ff3 cebd 5e85 a7ba 7f03 e43d
00000190: 683f 0fbc dcdf a23c 5863 013e 006d 88bd
000001a0: a22e a13c 1227 d33c 1289 bcbd 27a2 d9bd
000001b0: 55e0 7a3d afa8 fb3d 1de1 c2bd b133 11bd
000001c0: 01a5 543c 6403 ad3c 894b 3b3d 9fc1 aa3d
000001d0: 9fb0 f7bb ff05 aa3b 4840 923d 659c ce3c
000001e0: 004e 013e d35d 01bd dbef d5bd 1d55 8fbc
000001f0: 3414 b13d a444 763d 6549 b2bd f506 ae3d
00000200: 7afa 59bd 0fa1 b0bc cc5f e7b9 0b30 85bb
00000210: 8535 c1ba c2bb 503c fad7 2c3d fe67 78bd
00000220: 1b37 ca3d 8e64 69bd cbc2 50bb 8088 ce3d
00000230: b5b5 c2bb 6681 303d 28b4 e83d f033 e7bd
00000240: b843 8cbd a830 913d 12d3 9d3c acb2 ba3d
00000250: 8a1f f9bd e3ed c2bc f1f0 5abd 6c63 453d
00000260: f89a 39bd e60a 94bb 4fed 0f3d 524b 59bd
00000270: 1be8 acbd 55eb c8bd 626a e53d 5a56 5fbc
00000280: 3550 e9bd 0948 95bc 3b1e a83c 58aa f5bd
00000290: b60e cabc ea83 e93d 8f1d 2dbd 3bc8 90bd
000002a0: d887 18bd 6435 3c3d 0c13 edbd 9c6f e03d
000002b0: 4fc7 8d3d f708 ca3d 8e35 663d c960 b23d
000002c0: e382 2a3c 2f8e c13c c542 a23b 71f2 b5bd
000002d0: 70b4 81bd 5447 be3c 62c3 bdbd ae69 bc3c
000002e0: 7faf 65bc cc6c af3d 659d d23d a182 76bd
000002f0: 4ba4 373d 051e 683d d838 c83d 53e0 ac3d
00000300: 8226 3cbd 4cc7 a5bd 0dc1 bc3d 25ec f23d
00000310: d24f 0a3d bb24 993d a32b 8a3d b9c5 443d
00000320: 4761 3bbc ab11 cd3b 21db 95bd f06d 173d
00000330: b107 ffbd 520b 85bd 7f47 1c3d 1281 b63c
00000340: 7a86 1e3c b8b1 28bd 09e8 e1bd 333d f8bd
00000350: 6b7f 48bd 2875 e13d bd43 96bd b910 dc3c
00000360: d8b7 99bd d904 c23d e2bb f73d 113f 3cbd
00000370: a245 663d e131 89bd c064 9d3d 914b bbbd
00000380: be29 5b3c 90b8 9cbc b7f1 78bd 1b4a bb3d
00000390: a2bc 3abd 50aa 74bd 8dbe 81bc a6c5 813d
000003a0: a8cf b2bc f19a 18bc a932 ce3d 7605 e83d
000003b0: 1061 2c3c 9a4a 063c 4b2c 553d 6204 673d
000003c0: 2675 e23d f285 bc3c fe2f d2bd 9cea 473d
000003d0: 721d f33d d454 b0ba 16f7 ad3d 0a19 2b3d
000003e0: 76e1 b03d 7f9a ecbb c415 793d 74c8 4e3c
000003f0: 0e4c b3bd fd3e 933c 049a a23c 00a0 0fbd
0.092490986 -0.040061723 0.032891225 -0.016718792 0.09552168 -0.039974507 -0.028488452 -0.112465285
-0.0339539 -0.09075999 0.06533573 -0.07797104 -0.0676325 0.08831337 -0.110746324 -0.111027
-0.09265417 -0.0019256105 -0.053281292 -0.05575803 -0.069901824 -0.011612429 -0.048693057 0.087971754
-0.011761228 0.04645707 -0.050490282 -0.02269711 0.104564 0.0068638474 -0.037380982 -0.00305882
-0.091884896 -0.08506925 0.04260021 -0.10399112 -0.008919649 0.030269511 -0.0030457485 -0.039513633
0.037892215 -0.07116191 -0.08199549 -0.06524745 -0.0023044003 0.06707315 0.007885214 -0.1258697
-0.05932606 -0.07438114 -0.074423015 -0.119762644 -0.025566781 -0.01054729 0.08545922 0.016812053
0.097718604 -0.115890004 -0.040134247 -0.11422442 -0.08907807 -0.024324708 -0.117065884 0.01494831
0.031332146 0.12071613 0.09709282 0.06939454 -0.11511935 0.11628594 -0.05575976 -0.11692485
-0.10786035 0.11391004 0.013228618 0.003973393 -0.011670038 0.039737392 0.11525926 0.10552431
0.043843664 0.030543718 -0.121998444 -0.0036158508 0.08985086 0.060678918 -0.0170953 0.05075444
0.0625317 0.013402644 -0.11285186 -0.07729726 0.117066965 -0.098647475 -0.047495984 -0.04415528
0.07990876 -0.101049654 -0.0012780835 0.11133479 -0.008743145 0.019882135 0.12635553 -0.06661415
0.019675557 0.025775466 -0.092058316 -0.10626631 0.061249096 0.12288033 -0.09515593 -0.035449687
0.012978793 0.02111978 0.045726333 0.083377115 -0.0075588967 0.005188703 0.07141167 0.02522106
0.12627411 -0.03158362 -0.104461394 -0.01749664 0.086464316 0.060124055 -0.08705405 0.08497421
-0.05321739 -0.021561174 -0.00044131128 -0.004064565 -0.0014740682 0.012740077 0.04219816 -0.06064605
0.09873792 -0.056980662 -0.0031854387 0.10084629 -0.0059420713 0.043092154 0.11362487 -0.11289203
-0.06848854 0.070893586 0.019265685 0.0911611 -0.12164219 -0.023795074 -0.053452436 0.04819052
-0.045313805 -0.0045179008 0.035138424 -0.053050347 -0.08442708 -0.09810511 0.112019315 -0.013631428
-0.113922514 -0.018222826 0.020522228 -0.11995381 -0.024665218 0.11402114 -0.042264517 -0.07069441
-0.037238926 0.045949355 -0.115758985 0.10958788 0.06922781 0.09864991 0.056203417 0.087098666
0.010407182 0.023627369 0.004951807 -0.08884133 -0.06333244 0.023227371 -0.09265782 0.02299961
-0.014018892 0.08565673 0.10283927 -0.06018317 0.044834416 0.056669254 0.09776467 0.08441224
-0.04593516 -0.080946535 0.09216509 0.11861447 0.03376753 0.07477709 0.06746604 0.048040126
-0.011436767 0.0062582097 -0.07317186 0.03697008 -0.12452639 -0.064963 0.03815412 0.022278342
0.009675616 -0.04118511 -0.11030585 -0.12121048 -0.04894964 0.11008674 -0.07337139 0.026863443
-0.075057685 0.09473581 0.12096383 -0.045958582 0.05621875 -0.06698967 0.07685232 -0.091452725
0.013376651 -0.019130975 -0.060777392 0.09144994 -0.04559005 -0.059732735 -0.015837932 0.063365266
-0.021827534 -0.009314285 0.100682564 0.113291666 0.010521188 0.008196497 0.052044194 0.056400664
0.110575005 0.023013089 -0.1026306 0.048807725 0.118708506 -0.0013453015 0.084943935 0.041771926
0.08636753 -0.007220566 0.060811773 0.012621034 -0.08754741 0.017974371 0.019848831 -0.035064697

bias f4 [256]
00000000: 780c 8c3d f57f 51bd 01e2 aabc 2cb3 e03d
00000010: 8d6f 003e 1b93 a43d 0e2e 243b e93b e53d
00000020: 170f 92bd ad5d 023d e593 ce3c b347 f63d
00000030: 4c60 943c ddb1 3fbd 4c22 0b3c a115 6dbc
00000040: b6b8 07be 63da fbbd 44d0 b3bd cf14 b6bc
00000050: 671c 8cbd a47a d33d 3f2b 043e b20b 823d
00000060: 2069 e5bb 169b ed3d 9874 e5bd b0f6 6fbc
00000070: 7001 483d 30bf 093d 66b9 9fbc eb19 853d
00000080: e75b c13a 581e c7bb 624c b8bd b3a0 d4bd
00000090: 43b0 cb3d 9b13 8bbd 58ed 9ebd 1eee 3a3d
000000a0: 768c 31bc b1a7 3e3c a90a 5cbd 6be1 fcbc
000000b0: 8b42 a83d 15a2 a63d f5c8 b9bd a70e ffbd
000000c0: 97e1 6bbc 75b8 4dbc cb45 5b3c ab32 a93d
000000d0: 598c 54bd 1fa1 b2bd 3028 e73d 1ee3 943d
000000e0: aa45 fc3d e2ab cc3c d7bc 96bd d3b4 bbbd
000000f0: 0ef7 c3bd b5c1 c03d 7586 f23d 93ae c2bc
00000100: 4805 54bd 5c62 a83d a34e d5bd 7e8a 8bbd
00000110: ee75 913d fbdf 5abd 3c55 9a3d 59f3 023e
00000120: b4a3 a3bd df7b 54bd 65b9 f53d 434b b1bb
00000130: 9594 293d f63e 973d fe4d 1dbc 7703 bdbd
00000140: 33e3 88bd e05e dcbc 9689 403d 6946 99bb
00000150: 0979 a1bd b0f9 383d 5033 933c 687c 18bd
00000160: 09ef 16bc 7860 373d 0129 a0bc 3187 c6bc
00000170: 4839 c5bd 92ad ba3d d337 d33d cf4b bfbd
00000180: a994 c0bd 0c40 7fbd d5e5 eebc 2257 35bc
00000190: d9fd 343d ab16 c93d c551 83bc 1cce c33d
000001a0: 127d 2cbd bb6b b0bd 38ce 823d 7982 873c
000001b0: 0342 e8bd dc24 15bd 77e0 ee3c d3a8 c43d
000001c0: 0d5a 08bc fcdb 2e3d 1b90 c33d 5ae6 be3d
000001d0: f4b1 2bbc 7bb3 8bbc e7d9 6abc 40c5 403b
000001e0: c77c 573d 8d9f 2f3d a79c f73d 1ccd 96bc
000001f0: 2ae3 b23d e2c8 c9bd 55a6 b7ba c65b 65bd
00000200: 50d5 073e 5dbb 9f3d ef35 f13c a059 fabd
00000210: 040d d73d 5529 823c fa05 4dbc 5557 3d3c
00000220: 24e9 b33d f1fc 05bd aab1 d23d eabd cabd
00000230: ec77 1d3d e1d6 1d3d ff68 e03d 2e97 36bd
00000240: 1b27 b43d c16b a03d 39b4 4d3c a59f cd3d
00000250: 28e1 1abd 7f84 82bd 3163 69bc 7294 67bd
00000260: 9373 86bb 26d4 1bbc 1049 a43d 5fee e53d
00000270: 32de bdbb aada 8d3d cb7e d4bc f3ab c23d
00000280: b810 92bd 02fe d3bd e30d d4bd 3cdc 40bd
00000290: 9fbc 093d 9a8c 94bc 0bb5 13bd 0eed 94bc
000002a0: b57e 4c3d 8aba cabd e5db 60bd e90f 71bd
000002b0: 0f3a bebd 7121 48bb 7b1b bf3d e403 d3bd
000002c0: 1871 4f3d 3b1a 25bd db46 50bd d5e0 3a3d
000002d0: 61b0 bcbc 658d 50bd cee7 e7bd 7df3 a03d
000002e0: 8056 d8bb 094f ddbd 78d5 ca3d 04e7 af3d
000002f0: 8dee f0bd cff4 bf3d c5f6 febc 1a62 74bd
00000300: 0737 8e3d 50ce 78bd 6785 e83c a9ab 7d3c
00000310: 0b93 a23d 79f1 b53c b93d 623d c18d 05bc
00000320: 83a2 333d 9330 b4bc 2fc7 fe3b ab5f ff3b
00000330: 595b 09be 6db5 bb3d 09f1 94bd 872f 993d
00000340: 561f 4bbd 06a1 f8bd a780 5dbd 87c7 01be
00000350: 4830 e9bb dada 9b3d 3ed3 91bd f7c7 fbbd
00000360: 2259 fe3d 7cb4 cebd 613b 75bc bcdb 5b3d
00000370: 0b51 eb3d 305f d83d 05b2 16bd 5502 25bc
00000380: c329 3d3d 2818 88bd ceb2 98bd 040b a8bd
00000390: 11cf b3bd b918 bcbd 239a acbd 6b3b d9bd
000003a0: 3293 d9bd 9023 b1bd 6e2b e5bd fa22 bcbd
000003b0: 0a47 c83d 043b a13c 3f9d 023e 753c d43d
000003c0: b847 64bd ac2b a63d 44ba 9e3c 75ad bb3d
000003d0: 5ddb e8bb d3ea e8bd 3fc4 683d b54d d73c
000003e0: 45f4 babd baf4 7b3d 1e4d d73d e273 e43c
000003f0: 25e2 723d 4ea0 773d 237f 23bd 70b4 473d
0.06838316 -0.05114742 -0.02085972 0.10971674 0.12542553 0.08035871 0.0025051865 0.111930676
-0.071317844 0.031827617 0.025217006 0.12025394 0.018112324 -0.046800483 0.008492064 -0.014470489
-0.13254055 -0.12297513 -0.08779958 -0.02222672 -0.06841355 0.10326126 0.12907122 0.06349887
-0.0070010573 0.11601846 -0.11203879 -0.014646217 0.048829496 0.033629596 -0.019497585 0.06499084
0.001475212 -0.0060766153 -0.08998944 -0.103822134 0.09945729 -0.06790849 -0.077601135 0.045637242
-0.010836711 0.01163666 -0.053721104 -0.030869206 0.08215817 0.081363834 -0.09071533 -0.124539666
-0.0143970465 -0.012556185 0.013383339 0.08261617 -0.05189166 -0.08722138 0.11286962 0.07269882
0.12317975 0.024984304 -0.07360237 -0.09165349 -0.09568606 0.09411947 0.11842052 -0.023764884
-0.05176285 0.082218856 -0.104153894 -0.06813525 0.071025714 -0.05343626 0.075357884 0.12788142
-0.07990208 -0.051875945 0.11998252 -0.005410583 0.041401464 0.07385056 -0.009601114 -0.092291765
-0.0668396 -0.026900709 0.047006212 -0.004677583 -0.07884414 0.045159996 0.017968804 -0.037228018
-0.009212264 0.044769734 -0.019550802 -0.024234386 -0.09630066 0.09115137 0.10313382 -0.09340631
-0.09403355 -0.06231694 -0.029162327 -0.011068137 0.0441874 0.09818777 -0.016030202 0.095607966
-0.042111464 -0.08614298 0.06386989 0.016541706 -0.11340716 -0.036412105 0.029159768 0.09602513
-0.008322251 0.042690262 0.0954897 0.0932128 -0.010479439 -0.017053356 -0.0143341785 0.0029414445
0.05260923 0.04287677 0.12090426 -0.01840835 0.08734734 -0.098527685 -0.0014011363 -0.055995725
0.13264966 0.077994086 0.029444663 -0.12224126 0.105005294 0.01588885 -0.012513632 0.011556466
0.087847024 -0.032711927 0.10287793 -0.098995045 0.038444445 0.038535003 0.109575264 -0.04457777
0.08796521 0.078330524 0.012555175 0.100402154 -0.037812382 -0.06372928 -0.0142448405 -0.056538053
-0.004103133 -0.009511029 0.08021748 0.11227106 -0.00579431 0.069264725 -0.025939366 0.09505453
-0.07132095 -0.103511825 -0.10354211 -0.047085032 0.03362715 -0.01813345 -0.036061328 -0.018179443
0.049925525 -0.09898861 -0.054897208 -0.058853064 -0.092884175 -0.003053751 0.09331413 -0.103034765
0.050644964 -0.04030822 -0.050848823 0.045624573 -0.023033323 -0.050916094 -0.1132351 0.07858942
-0.0066021085 -0.108060904 0.09903997 0.085889846 -0.1176425 0.093728654 -0.031123528 -0.05966387
0.069440894 -0.06074363 0.028383924 0.0154828215 0.079382025 0.02220987 0.055234645 -0.008151473
0.043856155 -0.021995818 0.0077752094 0.007793387 -0.13413753 0.091654636 -0.07272536 0.07479768
-0.04959043 -0.12140088 -0.05407777 -0.1267377 -0.0071163513 0.07610102 -0.071203694 -0.12294
0.124193445 -0.100930184 -0.01496777 0.053676352 0.11490067 0.105650306 -0.036790866 -0.010071357
0.046182405 -0.066452324 -0.07455979 -0.08205226 -0.08779729 -0.09184403 -0.08427837 -0.10607036
-0.106237784 -0.08649361 -0.11189924 -0.09186359 0.097791746 0.019681461 0.12755297 0.10363094
-0.05573246 0.081137985 0.019375928 0.09163944 -0.0071062283 -0.11372914 0.05682778 0.02628217
-0.09128622 0.061512686 0.10512756 0.027887288 0.0592977 0.060455613 -0.03991617 0.048756063

weight f4 [256, 64]
00000000: 46e3 6c3d 90ce 463d 4355 e3bd ffbd 70bb
00000010: 6a78 fd3d bd3b 353d 65b9 403d 5e1e 333c
00000020: 21d6 443d 12a1 1e3d de90 1fbd a6c2 e23d
00000030: ed54 d8bd f46b a5bd 9161 fabb 00c4 abbd
00000040: f9f1 5f3d adab f6bd 24a2 60bc 79b3 babb
00000050: f639 b83d 6a8e 1fbc 9b28 d73d 6e0f ef3d
00000060: 38a7 8cbd 0d4b edbd 335e f9bb 2b1b d83d
00000070: 602c 943c 690f b13a 255f 8abd 782e f2bd
00000080: 4512 e03d b436 24bd 5d65 c43d 5cc9 403d
00000090: 4d12 98bd 3082 9e3d 427c 63bd 8e13 05bd
000000a0: e7fa 6cbd e5bf 40bd d456 e8bc b7ae b9bb
000000b0: 24f0 95bd d6e2 eb3c c946 803c b872 87bd
000000c0: 5e8d 79bb cc08 f6bc a429 7e3d 8fcc 93bd
000000d0: 761f 4dbd 94e5 96bb cffb 123d 8c42 4f3c
000000e0: 9bc9 e4bc fe32 673d 11d4 2b3d b85d 7f3c
000000f0: b780 353d 1c8d 363d 4fa5 9f3d 3f24 e13c
00000100: d262 e9bd dd60 e9bd 2457 143c dc1a f0bd
00000110: 4bd1 da3c 5817 afbd 1ddf 863c 9272 bc3d
00000120: fe60 b33d 7898 52bd 84bb afbd b186 76bd
00000130: afdd 57bd 2102 12bd bff8 d9bd 3c55 f5bb
00000140: 3653 b8bd c90b f2bd ee4d f83d 91dc a33c
00000150: c60f cc3c 92d5 af39 bef0 903c 293e d6ba
00000160: 5dac d0bc 0841 91bd f528 91bd 1521 92bc
00000170: d2b3 eabd 26df ce3d e2c2 0fbd fe68 09bd
00000180: 488f 6bbd 9a19 723c 8935 fe3d 2f90 c33d
00000190: dd84 aa3c 818c 3f3d 588c d83d 693a 583d
000001a0: 201b 2a3d 6dc7 e13d 3874 d4bd 7add 403d
000001b0: 510c 0abb b85a 76bd f5f5 92bc 78b1 5dbd
000001c0: 4e83 5d3d ce3b 92bd 36d5 f63d d2fc 533d
000001d0: 9df0 90bd f0f9 d7bd cae8 cebd f518 913d
000001e0: 88a3 95bd 6551 b43c 3f57 8c3c 7a43 e03d
000001f0: 3b8c cdbd 9738 c63c 1298 af3d b69f 58bb
00000200: 3db1 883d acc2 8f3d 9aa7 69bd 30df cf3d
00000210: f6a6 a7bd 73dd 8fbd d45b cebd 32da eebd
00000220: 4ebe febd dd41 ba3d b724 233d db69 86bd
00000230: d311 e23d 9764 bfbd 09a8 b8bd 3f7d a63d
00000240: 98da 843d 5bb0 a0bb a462 bb3d 6e4a 91bd
00000250: 14ad 01bd 14fd e0bd a315 263c d74c 953c
00000260: 9682 1bbd 18b0 c6bc 5b22 ffbb 0c4e f639
00000270: cbf6 033c 6d48 0e3c 5a13 9b3c 9579 d0bd
00000280: 95f8 603d 096a 9bbd fa6c c6bd 88be f5bd
00000290: 92a3 33bc 1054 8bbc fb0c f5bd 0645 91bc
000002a0: 944d a43d c0ef a6bd 4ecd cdbd b40e d73c
000002b0: 2d0f 6a3d 99bc 163d 3ac6 8bbd 782e 67bc
000002c0: 1dec bcbd aeab e23d 1211 0fbd 3a78 b83d
000002d0: 050c d03c 0b4c a8bd 29c2 413d dd42 463d
000002e0: b6bf d73d f6ff a73d 670b 04bd b1e4 2d3c
000002f0: 73cc f5bc cd00 43bd e02e bdbd 0d2f a4bc
00000300: d4f4 bb3c 85cc 7c3d deb5 febd 131a f7bb
00000310: 666b a43d b1f1 d3bd 5953 b0bd ff74 e8bd
00000320: 52e5 e23d 6302 363d 0559 6dbd 8006 2ebd
00000330: 1ae0 633d 084d 3fbb d60e 53bd da3b 633d
00000340: ac83 b2bb a8e7 903d fa12 2a3d 841d be3d
00000350: 8067 a7bc 837d 013e 04a8 f03d f607 85bc
00000360: 2500 3fbd e0db 11bb ab7f a2bd 87e1 27bd
00000370: 8b71 a43c 4fba c43c c9b2 ba3d 59a1 2abd
00000380: 70e8 3abd c2b3 92bd 2d5e 19bd 2e4f 8a3d
00000390: 0953 b13d 7eb1 f9bb 3ecc b83d 0dd7 d1bd
000003a0: 9652 9e3d 7358 90bd d72d a3bd 9ec5 84bd
000003b0: 3b93 a6bc 2161 dcbd 1a91 df3d 5f99 a3bd
000003c0: 9731 d1bd 6097 eb3d 4779 07bd 77e8 ea3d
000003d0: ff52 89bd 6cb7 2ebd d818 f33d 0be1 9cba
000003e0: ed6b f53c 9fd0 823d 06f5 263d 9881 8ebc
000003f0: 733a 5fbd 1bce 52bc 002f 293c d759 a9bc
0.057833932 0.048536837 -0.11100247 -0.003673434 0.12376483 0.044246424 0.047051806 0.010932533
0.04805577 0.038727827 -0.038956515 0.110722825 -0.10563073 -0.08077231 -0.0076410254 -0.083869934
0.054674122 -0.12044463 -0.013710532 -0.0056976643 0.0899543 -0.009738544 0.10505792 0.11672865
-0.06867832 -0.115865804 -0.0076101064 0.10552057 0.018087566 0.0013508621 -0.06756429 -0.118252695
0.10940985 -0.04009123 0.09589646 0.04706703 -0.074253656 0.07739675 -0.055538423 -0.032489352
-0.057856467 -0.047058005 -0.028361715 -0.0056665796 -0.07321194 0.028794687 0.015658753 -0.06613678
-0.0038078646 -0.030033492 0.06205143 -0.07216751 -0.05007883 -0.0046050046 0.035884675 0.012650143
-0.027928164 0.056445114 0.04195029 0.015586309 0.044312205 0.044568166 0.07795202 0.027483104
-0.113958016 -0.11395428 0.009053979 -0.11723873 0.026711127 -0.08549374 0.01646381 0.0920154
0.08758734 -0.051414937 -0.08580688 -0.060187045 -0.05270165 -0.03564656 -0.10643148 -0.0074869674
-0.09000246 -0.11818654 0.12124239 0.020002635 0.024909865 0.00033537723 0.01769292 -0.001634543
-0.025472814 -0.07092482 -0.0708789 -0.01783804 -0.11460079 0.10101156 -0.035097964 -0.033547394
-0.05750969 0.014776612 0.12412555 0.09548985 0.020815307 0.046764854 0.105736434 0.05279008
0.041529775 0.110243656 -0.103737295 0.047086217 -0.002106447 -0.06014511 -0.017939547 -0.054124326
0.0540803 -0.07140313 0.120523855 0.05175478 -0.07077143 -0.10545719 -0.10102995 0.07084838
-0.07306582 0.022011468 0.017131446 0.1095037 -0.100365125 0.024196906 0.08573927 -0.003305418
0.066744305 0.070195526 -0.057044603 0.101499915 -0.08186142 -0.0702466 -0.100761086 -0.11662711
-0.124386415 0.09094594 0.039829936 -0.06563159 0.11038556 -0.09345358 -0.09016425 0.081293575
0.06487006 -0.0049038357 0.091496736 -0.070942745 -0.0316592 -0.10985771 0.0101369945 0.018225117
-0.037966333 -0.02425389 -0.007786078 0.00046978926 0.0080544455 0.00868426 0.018930126 -0.1017944
0.054924566 -0.07588584 -0.096887544 -0.119992316 -0.010964291 -0.017007858 -0.119653665 -0.017733108
0.08022609 -0.081511974 -0.100489244 0.026252128 0.05714338 0.036800954 -0.06824918 -0.0141102
-0.092247225 0.110679016 -0.03492839 0.090073064 0.025396356 -0.08217629 0.047304306 0.04840361
0.10534613 0.082031175 -0.032237437 0.010613606 -0.030004716 -0.047608186 -0.09237456 -0.020041967
0.022943892 0.061718483 -0.12437032 -0.00754095 0.08028297 -0.10348833 -0.08609647 -0.1135044
0.11078896 0.04443587 -0.057946224 -0.042486668 0.05563364 -0.0029190201 -0.05152782 0.055477
-0.0054478254 0.07075435 0.041522004 0.092829734 -0.020435095 0.12645535 0.117507964 -0.016239148
-0.046630997 -0.00222563 -0.07934507 -0.040986564 0.020073673 0.02401462 0.09116132 -0.04165778
-0.045631826 -0.07163192 -0.03744333 0.067533836 0.08658416 -0.0076200357 0.09023331 -0.10246096
0.07730596 -0.0704812 -0.07967728 -0.06483005 -0.020333877 -0.10760713 0.10916348 -0.079882376
-0.10214537 0.11503482 -0.033074643 0.114701204 -0.067052834 -0.042655393 0.11869973 -0.0011968923
0.02995869 0.063874476 0.040761016 -0.01739578 -0.0544991 -0.012866522 0.010326147 -0.020672722

bias f4 [256]
00000000: 3d36 f53d cf38 1b3d de47 4bbd 5a18 f3bd
00000010: bfd4 893d 97d3 97bd 8e4a 10bd 72e5 febc
00000020: 92cf c6bd 1180 b13d b7b3 8d3d bba8 8f3c
00000030: 35d1 9ebd 07fd 893d 6e3d f8bc bead c1bd
00000040: 3844 e0bd 6204 1cbd 440f 6ebd 20ab 473d
00000050: ebee 0e3d 0286 e8bd 7df7 79bc 24c3 723c
00000060: 1247 753d c26e ebbd a875 50bd 12e8 f73d
00000070: 1a51 843d b32a 71bd 86ea 433d 80c0 8dbd
00000080: 9d69 86bd dcba 963d 65ef bbbc 0ee5 cb3d
00000090: 0806 ffbd 8e58 49ba 4075 81bd 48eb 663d
000000a0: bb93 b93d 28bd 6f3d e942 e63d 6302 253d
000000b0: de06 7e3d abf2 44bc 6da9 e3bd 84ee 01bb
000000c0: eac1 803d 5ad7 be3d ad74 4a3d d7bf 9f3d
000000d0: b3b7 a93d 552a 2c3d 1477 7a3d db14 f73d
000000e0: 5ab6 a8bd b29b d03c 0273 edbd 9bb2 403d
000000f0: c7f7 ab3c f53f f8bc 92c1 82bd 967b ef3d
00000100: 2c42 9e3d acb1 fd3d 446a 213d 1eed cb3d
00000110: 7f9b b5bd a851 743c 6e80 583d 4129 763d
00000120: a4ea 47bd fecf e4bd 8c38 6f3b 12b7 aabd
00000130: 58de c33d 383b 01bd f591 dbbb 416a dbbd
00000140: 9963 ef3d 8dd1 b8bd 01f6 e63d b1ec 7b3c
00000150: e165 d23c 75d8 e2bc e75b 3f3d 0828 f43d
00000160: db99 a2bd b51a 213d 8cf5 0cbc 8922 cbbc
00000170: cf66 db3c 5638 023e d3dd d43d b110 c6bc
00000180: 3ddd 833d a038 6a3d a8cb edbd ffb5 f4bd
00000190: 3161 6c3d 31c5 ef3d dd22 293d 6c00 bc3d
000001a0: b42c e23d b864 17bc 4592 7abd 3856 cd3d
000001b0: abd3 c0bd 14b1 ff3c 4612 573d 120a 503c
000001c0: b1ae 34bd 5bc4 59bd 3dc3 f1bd 1f12 97bd
000001d0: 555c d43c 39e8 e13d 77b7 ba3d eb41 903c
000001e0: c936 cabc 87c1 a3bd d491 cc3d bcdc 583d
000001f0: 33f0 c03d f600 8fbd f5d0 d93d 9404 dbbd
00000200: 5113 b43c 2235 d23c a036 8bbd 84df 953d
00000210: 281b 4cbd 9bfd 88bd fde0 8c3d 8daf c03d
00000220: 8141 d43d bcc2 b1bd b539 df3c e3df 563b
00000230: 6af1 863d e3e6 5f3d 281a 9bbd d162 74bd
00000240: 5d60 abbd 6239 c3bd 1c42 993d 9b3f ec3d
00000250: bdd0 603d 063d c43d 22a3 59bd ec79 df3b
00000260: e84d 77bd 317c ffbc 183d cebc 7208 d8bc
00000270: 586e 7abd 6a19 e1bd 2a52 9d3d 05c0 9abc
00000280: c3b6 ce3d a8f7 633d 3487 2d3d 7af1 eb3d
00000290: 51da cdbd b9df 4cbd dffb a73d fd06 963d
000002a0: 50b9 29bc d94e eabd 1a17 6ebd cc9d c13d
000002b0: bb9e 45bd 98a2 3b3c 30f9 1dbd d33f 4b3d
000002c0: 92ef 81bc 7bf5 f53d 50c2 0f3d b0e5 ffbd
000002d0: 94a8 ae3d ddc0 a7bd 4f3e a73c f785 ba3d
000002e0: 2f99 2ebd 79dd 723d d907 023d ada0 84bd
000002f0: b8a7 293d 0de9 5bbd 107f 5dbd 1ba4 8dbd
00000300: f26d e23d b071 753d 3bef c2bd b727 c23d
00000310: d6a0 bebc 43e0 893d b631 cc3c ff7c d03d
00000320: 20b9 393d ad73 81bd 5e28 a6bd ba17 72bd
00000330: 4328 993d 1856 a23c 635f 6a3d ce05 fcbb
00000340: 4851 d33c fa18 1e3d 790f 36bd 7d44 df3d
00000350: ddba 08bd 9bc4 bb3d 260b 493d 1c9b d03d
00000360: 641f 0bbd 8139 d4bd 7037 45bd ee50 6dbd
00000370: 85d0 c03d afe3 ab3d 3332 aebc 8a96 babd
00000380: 1ed5 6ebd 7261 7cbc 17db b8bd 0dc4 bdbd
00000390: f02d 41bd e0a3 cfbd 401e b93c d243 d0bd
000003a0: f030 97bd 4f5f e3bd 29e1 163d 0dbf e43d
000003b0: 518a 50bd 394d ff3d c0e3 c43d 7f3c af3d
000003c0: aa6f c93c 4659 f13d dda8 a33d cf1b 4f3c
000003d0: 588c b2bd eaa7 fb3d 5d1a a23d a4f2 d1bd
000003e0: 6d2b 91bd 5c7c cb3d 9bb9 973d 9ad4 89bd
000003f0: cc28 23bd 610a cdbd 4e30 cfbc 0eda aebd
0.11973236 0.037895974 -0.049629085 -0.11869879 0.06730031 -0.074134044 -0.03522735 -0.031115267
-0.0970756 0.08667005 0.069190435 0.017536512 -0.07754747 0.06737714 -0.03030273 -0.09456967
-0.10950512 -0.038090117 -0.058120027 0.048747182 0.03489582 -0.11353685 -0.01525676 0.014817033
0.05988223 -0.11495735 -0.050893456 0.12104811 0.064607814 -0.05887861 0.04783108 -0.06921482
-0.06563113 0.07359859 -0.0229413 0.09955798 -0.12452322 -0.0007680737 -0.06321192 0.056376725
0.090613805 0.058530003 0.11243231 0.04028548 0.062018268 -0.012020747 -0.111163 -0.0019826004
0.06286986 0.09318419 0.049427677 0.078002624 0.08286991 0.04203256 0.061148718 0.12064525
-0.08237906 0.025464866 -0.115942016 0.04704533 0.020992173 -0.030303935 -0.06384577 0.11693494
0.07727465 0.12387404 0.039407983 0.09957336 -0.08867549 0.0149120465 0.052856855 0.060097937
-0.048807755 -0.11172484 0.003650221 -0.08335699 0.09563893 -0.031550616 -0.006700749 -0.10713626
0.116889186 -0.09024344 0.1127739 0.015376256 0.025683345 -0.027691105 0.046718504 0.11921698
-0.07939502 0.03933211 -0.008603465 -0.024796741 0.026782421 0.12716803 0.10393872 -0.024177881
0.06438682 0.057182908 -0.1161111 -0.119487755 0.057709876 0.11707533 0.041293014 0.09179768
0.11043683 -0.009240322 -0.06117465 0.100262105 -0.094153725 0.031212367 0.05250766 0.012697713
-0.04411191 -0.053165775 -0.11804817 -0.07376503 0.025922934 0.11030621 0.091170244 0.017609557
-0.024684327 -0.07995897 0.09988752 0.052944884 0.09420814 -0.06982605 0.106355585 -0.106942326
0.021981867 0.025660101 -0.06797528 0.07318023 -0.049830586 -0.066889964 0.068788506 0.09408484
0.103640564 -0.08679721 0.027249197 0.0032787255 0.06589015 0.05466355 -0.07573348 -0.05966455
-0.08367989 -0.09532429 0.074833125 0.11535569 0.05488657 0.09581952 -0.05313409 0.006819954
-0.06037703 -0.031187149 -0.025175616 -0.026371215 -0.06114039 -0.109911755 0.07681687 -0.01889039
0.10093453 0.055656105 0.042365268 0.115206674 -0.10051406 -0.050018046 0.082023375 0.07325552
-0.010359123 -0.1144082 -0.0581275 0.094539255 -0.04824708 0.01145234 -0.03856772 0.049621414
-0.015861306 0.12009712 0.03509742 -0.12494981 0.085282475 -0.081910826 0.020415453 0.09107583
-0.042626556 0.059293244 0.031745765 -0.06475959 0.041419715 -0.05368905 -0.054076254 -0.06916066
0.11056127 0.059922874 -0.09518286 0.09480231 -0.023270052 0.06732228 0.024926048 0.10180091
0.045342565 -0.063208915 -0.08113168 -0.05910466 0.074783824 0.019816443 0.057219874 -0.0076911217
0.025795594 0.03859804 -0.04444835 0.10901735 -0.03338133 0.09168359 0.049082898 0.10185835
-0.033965483 -0.103625305 -0.048148572 -0.05793851 0.09414772 0.083930366 -0.021264171 -0.09110744
-0.058308713 -0.015404092 -0.09026163 -0.09265909 -0.04716295 -0.101386786 0.022597432 -0.10169186
-0.07382381 -0.11102163 0.036835823 0.111692525 -0.05091316 0.12465901 0.09613752 0.085564606
0.024589378 0.11784606 0.079911925 0.012640907 -0.08718175 0.122878864 0.07915185 -0.10251358
-0.07088361 0.09935829 0.07408448 -0.06730004 -0.03983383 -0.10011745 -0.025291588 -0.085376844

weight f4 [1, 256]
00000000: 9d11 4dbc 8013 093d 0b33 2fbd 37c5 70bd
00000010: 5f1c 2e3d 7fdd 0e3d 9cc3 f7bc 50b5 253d
00000020: 8b2e 473d cb9b 1f3d 341c afbb 05b5 f03c
00000030: 8d0b 32bd ca46 d9bc f0cf c33b 0d0a 663c
00000040: dffb 01bd 95b1 3cbc e812 713d 69cb 03bd
00000050: 1358 57bc a841 b83b 83ae 0e3d b182 4f3d
00000060: d6e6 ad3c fd82 5d3d 313a 033d 1b0b 503d
00000070: 047c 23bb 4609 febc 2d02 49ba 1f4c 4abd
00000080: 435c 4abd 0a8e 383d 01a6 d63c 017f 47bd
00000090: cc79 54bd cf8b 8d3c 68d9 80bc 5cd9 eebc
000000a0: 9d67 f2bc 96fb 693d d2fb 3bbc a2e5 4bbd
000000b0: 91ca 343d 1d40 3fbd e7a2 123d 4fd9 9b3b
000000c0: 63a2 65ba 8fc0 233c 90d6 f4bc 8f42 4bbd
000000d0: 116a e4bc 8bc1 36bd 7533 213d ed01 42bd
000000e0: 5f4d 7c3d 625b 393c 9a0c c4bc 9610 04bd
000000f0: 8fcf 3abd f2ae 273d 7a84 1d3c 4505 2fbd
00000100: d021 643c 7d33 3abd 662f 353d 2524 5fbc
00000110: a1ff 0a3d 8c13 36bd bc57 2f3d 644e d73c
00000120: 4c88 54bd b737 7c3d d780 4c3d 49d7 5fbd
00000130: aded fb3a 76a0 33bd 0e6a a63a 72c4 1cbd
00000140: a7d9 14bc a110 3c3d a94e dd3a 8eb8 7b3d
00000150: 8154 1fbc 8f46 52bd 5630 143d 1803 713c
00000160: d2c0 19bd 21ec 663d 18e5 13bc b361 54bd
00000170: ede8 1b3d 4adf 2f3c 6eae 5fbc d2d2 503d
00000180: 3b2d 203d 494c 4cbd 83b1 30bc ef55 0cbd
00000190: 2696 3c3d cb38 8f3c 58b2 673d 36ce 073c
000001a0: 5c99 9fba 6503 e9bc d7fd 9d3c cc8a f83c
000001b0: 63d2 f5bc ed69 ebbb 347f e53c 240b 373c
000001c0: f4cf ccbc cd38 61bd 0b87 3a3d cfd6 793c
000001d0: 03eb 2f3c 5841 be3c a179 4f3d b85e 6fbd
000001e0: 0d22 4abd 92a7 033d 2f82 623d 619f a5bc
000001f0: dc69 0d3c 2d8a e13c efea 553d 4e3e 7d3d
00000200: df52 1b3d 7042 0c3d c90b 4ebd 17c9 09bd
00000210: 3ef4 c23c a094 53bd fc4e 543c bd89 34bd
00000220: 6045 b7bc 4bba 523d ff17 03bb cf04 3e3d
00000230: 5d7b 4dbb 9c83 363d 7501 7e3c 6240 163d
00000240: 1082 3abd bb95 3cbd 500b 053b d694 bdbc
00000250: e255 aebc 6d34 f5bc 9220 a9bc cdf7 483d
00000260: bb77 193d 0b16 db3c 0c35 01bb 2ff8 293d
00000270: f41e 45ba 3920 35bc e9bd d03c c262 153d
00000280: 87f3 73bd 6cd4 51bd 5bd6 d3bc 12b8 47bd
00000290: 060c b8bb 1184 3e3d 29a8 483d 627a 063c
000002a0: 95f7 223d 7e5e 0abd 0ab2 b2bb 5f32 5bbc
000002b0: 6c30 2cbd 85af ff3c 35f1 d7bc b8df 8dbc
000002c0: b8ad 1a3d 9988 5d3d 213a 513c 393d 803c
000002d0: b1ca 0c3c a7b7 53bc d293 0ebd 197d 5b3b
000002e0: b7b6 463d 6952 5d3c 6482 583d 9319 4abd
000002f0: 1cc2 ecbc 23a4 69bc 7f32 cabc 6954 1d3d
00000300: 3848 f2bc f3f0 22bd 82d0 1c3c aef8 3e3c
00000310: 8926 abbc ea5e 50bd f3a0 a0bc a03e 5dbb
00000320: 88a5 b83a df7e 50bd 0120 cf3c 06ee 47ba
00000330: 04c9 4dbd 4a5b 7d3d 1bab 6abd d0ca 5fbd
00000340: c3eb d13c 5d2a 04bd 33f9 5cbc 01eb b9bc
00000350: d0dc 4b3b 6107 79bc 8c26 443d a90e c7bc
00000360: 5e09 ea3b 0ce1 213d c69d e03c 9239 853c
00000370: e7ad 56bd 4010 643d f073 37bc 15de 1fbd
00000380: 18ea 7d3c ca08 6dbd d0f7 43bd 6fd1 653c
00000390: 87e5 203d da75 b53c a6b5 423d d968 f1bc
000003a0: aa9c af3c dcc4 273b ce8c 463d 79a9 a9bb
000003b0: b9ea 0dbc c41c 4abb 34f0 ff3b 7381 5bbd
000003c0: 9dac b03c c998 3abd 87bb 1a3d ce38 633d
000003d0: f178 80bc c1cd 4d3d 88da 30bc 7ff7 adbc
000003e0: 903c 2239 70f4 6abd ee63 d4bb df4d 04bb
000003f0: dc1d d1bc 6fc8 efbc e03c 083d 9a9f 40bd
-0.012516406 0.033465862 -0.042773288 -0.05878183 0.042507526 0.034879204 -0.030244641 0.040456116
0.04862837 0.038966935 -0.0053439382 0.029383192 -0.043468047 -0.026523013 0.005975716 0.014040482
-0.031734344 -0.011516948 0.05885592 -0.03217641 -0.013143557 0.005623061 0.034834396 0.050661746
0.021228235 0.05408 0.032037918 0.05079184 -0.0024945745 -0.031010281 -0.0007667866 -0.049389
-0.049404394 0.045057334 0.026202204 -0.048705105 -0.051873967 0.01727858 -0.015728667 -0.02915638
-0.029590422 0.057124697 -0.011473613 -0.04977954 0.044138495 -0.046692003 0.035799887 0.00475613
-0.0008759854 0.00999464 -0.029887468 -0.049624022 -0.027882608 -0.04461817 0.039355714 -0.047365118
0.061597224 0.011313291 -0.02393179 -0.03224238 -0.0456081 0.040938325 0.009614104 -0.042729635
0.013924077 -0.04545926 0.044234656 -0.013619457 0.033935193 -0.044452235 0.04280828 0.026282497
-0.051887795 0.06157657 0.04992756 -0.05464867 0.0019220613 -0.0438542 0.0012696402 -0.038273282
-0.0090850955 0.045914296 0.0016884404 0.061455302 -0.009724737 -0.05133682 0.03617891 0.01471021
-0.037537403 0.056377534 -0.009026788 -0.051850986 0.038063932 0.010734389 -0.013652427 0.050982304
0.039105635 -0.04987744 -0.01078451 -0.03426164 0.04604163 0.017483136 0.056566566 0.008288911
-0.0012176442 -0.028444001 0.01928608 0.030339621 -0.030007547 -0.007184258 0.028014757 0.01117209
-0.025001504 -0.05498581 0.045538943 0.015248968 0.0107371835 0.023224518 0.050653104 -0.05843994
-0.04934888 0.03214223 0.055299934 -0.0202176 0.008631196 0.027531708 0.052226003 0.061826997
0.03792083 0.034243047 -0.050304208 -0.03363904 0.023798104 -0.05165541 0.0129582845 -0.04407667
-0.022371948 0.051447194 -0.0020003316 0.046391305 -0.0031354048 0.044559106 0.015503277 0.036682494
-0.045534194 -0.04604123 0.0020300932 -0.02314226 -0.021281186 -0.029932225 -0.020645414 0.049064446
0.0374677 0.02674391 -0.0019715456 0.041496452 -0.0007519566 -0.011055046 0.025481181 0.036471136
-0.059558418 -0.051227972 -0.025859049 -0.048759528 -0.0056166677 0.046512667 0.048988495 0.008207889
0.039786894 -0.03378152 -0.005453353 -0.013378709 -0.042038366 0.031211624 -0.026360134 -0.017318591
0.037763327 0.054085348 0.012770207 0.015654193 0.008593247 -0.012922204 -0.03480894 0.0033491312
0.048514094 0.013508418 0.052858725 -0.049340796 -0.028901152 -0.014260325 -0.024682282 0.038410578
-0.029575452 -0.03978057 0.0095711965 0.01165597 -0.020892398 -0.050871767 -0.019607997 -0.0033759251
0.0014087418 -0.050902244 0.025283815 -0.0007626716 -0.05024053 0.06185464 -0.057292085 -0.054636776
0.025625115 -0.032266963 -0.013487148 -0.022695066 0.0031106956 -0.015199513 0.047888324 -0.024298983
0.00714223 0.039521262 0.027418982 0.016262803 -0.05241194 0.05567956 -0.011197075 -0.039030153
0.015497707 -0.05786971 -0.047843754 0.014026984 0.039281394 0.022150923 0.047536515 -0.02946894
0.021437008 0.0025599515 0.048474126 -0.0051776734 -0.008661919 -0.00308399 0.007810617 -0.05359025
0.021566683 -0.045555864 0.037776496 0.055474095 -0.01568267 0.05024505 -0.010794289 -0.02123618
0.00015472085 -0.05736202 -0.006481639 -0.0020188016 -0.025526933 -0.029270379 0.03326118 -0.047027208

weight f4 [14, 256]
00000000: 3d80 41bd d7c8 6c3d 716a 1abc ef05 773d
00000010: ba90 4e3c ca91 a23b f25c 543d da2a d73c
00000020: eddb 26bc edfa dabc c0be 033c 03c3 e73b
00000030: f4cf e43c 68a9 5ebb 7ed6 c5bc f7bc 953c
00000040: b2aa ff3c d7eb 76bd 5bc9 f3bc ce6d 8ebc
00000050: 4836 273d 3612 8c3c 52ef 57bd e838 233b
00000060: 7a02 3fbd b708 2b3b f744 3f3d 21b2 283d
00000070: 7f69 21bd 315d 46bd 0300 70bd ae5c 47bc
00000080: b548 aa3c eb77 303d 08a6 04bd 3c3f 17bd
00000090: c954 e4bc fc8a 1d3c cb4d a83b 7f3b b13c
000000a0: 01b2 963c 6afe 81bc 5ba9 b83c d2e7 4ebd
000000b0: 800f 53bd 7c43 4fbd 3bae a03c f5ad 53bd
000000c0: bfab b2bc 7e5a 603d 1abf d53c 9858 09bd
000000d0: f416 9dbc 3500 91bc 8e4d 513c 797f b1bc
000000e0: 1dab 8eba 3552 20bd ee01 c13c 5757 6abd
000000f0: 3ff0 e83c 8f19 6f3d 7550 a63c 17d7 903b
00000100: 542f 37bd fa1e 723c cb11 b83c 57ca cc3c
00000110: 9ee8 b93c 8391 bbbc b641 943c da9f 39bd
00000120: 993f 003c eada 50bd 4213 bc3c aae4 4abd
00000130: f41c d8bc f486 773c e673 bcbc 67a5 1ebd
00000140: df6e 82bc 995a c53c 3262 3fbd 3131 39bd
00000150: 86b6 a23c 520c e83b facd 4d3d 4463 a93c
00000160: 0a12 3abd 1738 10ba 7c3f 7c3c 19bb 333d
00000170: c800 1bbd e06e 123d c147 cb3c 17bf 65bd
00000180: 0e8f 8a3c a92b 703d 075b 5dbc 83a6 9eba
00000190: d20e e03c f882 aebc 9885 d3bb 9b4f 26bc
000001a0: 3abf 05bd 6ca0 c63c 2b1b 153d 06e7 e4bc
000001b0: d0b2 73bd eaa0 6f3d 1191 5b3d 037b 623d
000001c0: 5ed3 22bc e91d cf3c e275 cbbc ca47 843d
000001d0: 0f75 b8bb ed5a 613d 4b60 cd3c 3b93 373d
000001e0: a544 373d 3ff2 343d e4d3 1cbd 2df4 ffbc
000001f0: 4f42 053d ec65 8d39 4238 82bd d523 bf3c
00000200: 750b e8ba 0b9d 0e3d 167f f1bc 429d 003d
00000210: 0289 6f3d ac84 4abd 36e6 03bd 8818 33bc
00000220: 2e40 6ebd ba9e 51bd 58d8 73bd a464 63bd
00000230: d839 353c d8dc f5bc b6a0 133d 9e8d 80bc
00000240: 3cf9 6abd c052 e13c 0e91 e63b c95d a7bc
00000250: 0463 3c3d fdf5 403d 6d6c df3b 7961 ad3c
00000260: aa23 51bc 23ff 6ebc 623e e9bb d41f 0abc
00000270: 9738 fd3b f8e9 f53c d771 443d aa5c 35bd
00000280: 9497 ea3c 38a8 683d 23d2 30bb c934 0c3d
00000290: dbae 433d 8608 6dbd aa39 3c3d 6d8a 23bc
000002a0: e9b3 1dbd 4061 22bd 49a5 9dbc 132f 753d
000002b0: 3641 913c 3172 503d b96c 463d 056a 4c3c
000002c0: 0a1b 68bd 97b4 31bd 0ab9 61bd 25e1 98bc
000002d0: dffc c8bc 088f 4fbd b777 12bd ad1e 64bd
000002e0: 9135 c83c aba4 423d e32c 2c3d 7725 9e3a
000002f0: b357 b3bc 844b 5a3d 9128 c03c a851 0bbd
00000300: 90d7 d83c 4b9d c0bc d13a 54bd dd29 0cbd
00000310: e84c eebc ed8c 8a3b 81cb 9d39 0bb8 66bd
00000320: 67b6 67bd cec4 443d 0309 0a3d 5446 b1bb
00000330: 95d3 113d 3c82 6dbc f9a1 3a3d 2e47 7cbd
00000340: a466 8e3c ae70 3ebd 9a1c b4bb 8559 19bd
00000350: 1ad7 ef3b c13d 74bd 7304 3e3d a1c2 503c
00000360: 9b6c 4d3d 1fc2 63bd f33d 54bb 813f ecba
00000370: e314 803d 5c2f 4c3d 528f 09bd 14d4 fd3c
00000380: b678 c23a fad2 8dbc 0e9d 1d3d 64da 6cbd
00000390: 402d 38bd 0238 cebc ee82 683d 65c2 0bbd
000003a0: 77f4 70ba e4fa 143c 76a6 563c 97d5 5fbc
000003b0: 57e5 f93c fcdf 5c3d b26c 5cbd 3517 3d3d
000003c0: 2d07 12bd 1a0a 153d 7ada 1a3d 544c 59bc
000003d0: f6d2 61bd 6994 c7bc 3c01 593d 1661 753c
000003e0: a1e1 97bc 227e 6c3c a3d8 92bc 0793 d038
000003f0: 6347 35bd 5c62 383d 4131 f33b d5bf 363d
-0.04724144 0.057808723 -0.009424792 0.060308393 0.012607748 0.004961227 0.051846452 0.02626555
-0.01018427 -0.026730979 0.008041084 0.0070728078 0.027931191 -0.0033975486 -0.02415013 0.018278582
0.031209324 -0.06028351 -0.0297591 -0.017386343 0.04082325 0.017098527 -0.052718468 0.0024905745
-0.04663322 0.0026097724 0.04669663 0.041185502 -0.03940725 -0.048428718 -0.05859376 -0.012168093
0.020786623 0.043083113 -0.032384902 -0.03692554 -0.02787246 0.009615656 0.005136227 0.021634815
0.018395426 -0.015868384 0.022541692 -0.05051405 -0.051528454 -0.050601467 0.01961433 -0.05167957
-0.02181041 0.0547738 0.0260921 -0.033531755 -0.019175984 -0.017700294 0.012774838 -0.021667229
-0.0010884736 -0.0391409 0.02356049 -0.0572122 0.02843487 0.058373984 0.020302037 0.004420172
-0.04472287 0.014777893 0.022469422 0.024998827 0.022693928 -0.022896534 0.01809774 -0.045318462
0.007827663 -0.050990023 0.022958402 -0.049534477 -0.026380993 0.015107859 -0.023004483 -0.03873196
-0.015922008 0.024091052 -0.046724506 -0.04521293 0.019862425 0.007081547 0.050245263 0.020677216
-0.04542736 -0.0005501522 0.015395995 0.043879602 -0.037842542 0.03575027 0.024814488 -0.05609044
0.016913917 0.058635388 -0.013510472 -0.0012104068 0.027350817 -0.021302685 -0.0064551346 -0.010150815
-0.03265307 0.024246417 0.036402863 -0.027942192 -0.0594967 0.05850307 0.053605143 0.055293094
-0.009938089 0.025282817 -0.024836484 0.06459005 -0.005629189 0.055018354 0.02507033 0.044818144
0.0447432 0.044176336 -0.038288012 -0.031244362 0.03253394 0.00026969553 -0.063583866 0.023332516
-0.001770361 0.034817737 -0.029479545 0.031399973 0.05848027 -0.049442932 -0.032201968 -0.010931142
-0.058166675 -0.051176764 -0.059532493 -0.0555159 0.011061154 -0.030012533 0.036041938 -0.015692528
-0.057366595 0.027505279 0.007036335 -0.020430462 0.045992866 0.047109593 0.0068183453 0.021164643
-0.012764851 -0.0145871965 -0.0071180323 -0.00843044 0.0077276933 0.030018792 0.04796013 -0.044277824
0.028636731 0.05680105 -0.002698072 0.034230027 0.047774177 -0.057869457 0.04595343 -0.009981734
-0.038501654 -0.039643526 -0.019243853 0.059859347 0.01773129 0.05089015 0.04844353 0.012476449
-0.05666641 -0.043385115 -0.055108108 -0.018662045 -0.02453464 -0.050673515 -0.0357587 -0.055693317
0.024439605 0.04752032 0.042034995 0.0012065609 -0.021892404 0.053294674 0.023456844 -0.03401342
0.026469976 -0.023512503 -0.051813904 -0.03421961 -0.029089406 0.0042282254 0.00030096996 -0.05632786
-0.056570437 0.04803925 0.0337 -0.005409995 0.03560217 -0.014496382 0.045564625 -0.06159132
0.017382927 -0.04649418 -0.0054965736 -0.037438888 0.0073193433 -0.059629206 0.04639096 0.012741716
0.050152402 -0.05560505 -0.0032385557 -0.0018024297 0.06253984 0.049849853 -0.033583947 0.030984916
0.0014837 -0.017312516 0.038479857 -0.05782546 -0.04496503 -0.025173191 0.05676549 -0.034120936
-0.00091917015 0.00909302 0.013101211 -0.013661764 0.030504866 0.053924546 -0.053814597 0.04616471
-0.035651375 0.036386587 0.03780601 -0.013262827 -0.05513283 -0.02436276 0.052979693 0.01497676
-0.018540205 0.014434369 -0.017925566 9.945599e-05 -0.044257533 0.045015678 0.007421643 0.04461654

bias f4 [14]
00000000: c27b e03c 1095 55bd 20cc 23bd 090b d13c
00000010: a072 5ebd add5 303c 8b90 77bd 1fb6 33bd
00000020: 43ad b6bc be11 5bbc 5e22 2c3d 2c5e 6f3c
00000030: 1e3f 08bd 746d 38bd
0.027402762 -0.05214411 -0.03998959 0.025517957 -0.054308534 0.010793132 -0.06044058 -0.043874856
-0.022299415 -0.013370929 0.042024963 0.014609855 -0.03326332 -0.045026258
