model/saved/naive_ddqn_state_dict.pt (torch, 153171 bytes, 9 tensors)

fc1.weight f4 [64, 3]
00000000: f892 25be 7d3b 2bbe a280 c2bd 2992 4b3d
00000010: 7cc1 97be 663e 86bb 9433 293e 4e50 093f
00000020: 1972 bd3e 0120 21be 53f2 d03d 6fbe 25be
00000030: 7e83 a03e 1ba9 04bf ca48 de3e 3df8 2f3d
00000040: a746 e3be ad75 c83e 805f 283e fdbc f63e
00000050: 14fa 093f d68e 00bf 9623 3dbd 12bd 89be
00000060: 4461 593e 00e5 aa3d 1f67 d73e a55e 653e
00000070: c949 03bf df75 293e 6747 fd3d 1219 31be
00000080: 96b3 053f 5f06 0a3f b38c 483e f9ea a4be
00000090: f2a7 d33e 988d 0d3f 7b1f 96be 7d42 033e
000000a0: e852 13bf 1494 913d 2c0e 0c3f 08e4 1b3e
000000b0: a8d9 64be 91b9 043d 83a1 013f 067f e4be
000000c0: 1a96 d23e 79ca 123f f8cf a5be d92c 61be
000000d0: 11a0 f03c e9fd e0be 95dd c43e dd70 5c3d
000000e0: 535f aabd 7386 c2bb 30d1 0ebf ede1 db3d
000000f0: 8a21 5dbe 9e0a 11bf 7200 a5bd 98e4 e03e
00000100: 177d d23e 460b 3e3d b906 dcbe 6eb4 063f
00000110: 79ac a7be d6f3 e1be b938 1dbd 310f 903c
00000120: fa1f d93d cd24 123f 5139 92be 1f72 f5bc
00000130: 3391 b5be 6de4 d83e ccca d93e 672b cfbd
00000140: 0f9f bfbe 30f5 08bf 7361 d83e 05ff 22bc
00000150: 536c bbbe e209 6a3e c9d7 e7be 0d66 09bf
00000160: efd3 93be 39ea ad3e d826 91bd cf84 bfbb
00000170: 50cc 39be f774 aebe 667b db3e 9d77 7d3e
00000180: c565 ebbc 2258 e93d 6ca0 f7bd 8f2f d83e
00000190: 7337 133d 749e 0bbf 2457 a4bb ca11 8c3e
000001a0: 51cc c13e 026e 00be 9a73 ecbd c90f 7c3e
000001b0: a6b7 9cbe 0566 c4be ecbc 0bbe 1aa0 8e3e
000001c0: c139 833e 80da 28be fe7b 0dbf dc71 4f3e
000001d0: c1a8 ba3e 217c 3b3e 9bb4 823e a3b4 913c
000001e0: 95ca fbbe 7a63 f53e 4ca9 8c3d d0be d93e
000001f0: 030a 073f 2f0a 363e 08e7 7b3e 96b5 02bf
00000200: 9d53 0c3f 4720 873e e4e9 debe 446c c1be
00000210: e497 03bf 54c2 993e 6ceb 8c3e 08af a63e
00000220: af9c 063d b6d3 9fbe 9701 39be 201f 9abe
00000230: 3db6 d1bd 76cc a3be c320 25bd 3db9 cebe
00000240: ae2d 8b3c 1392 a53e 9120 523d 09ea 3f3e
00000250: 4fdd 76be 4b48 a2bd 7b0d bc3e 7666 85bd
00000260: 4ec7 c5bd de92 ae3e 1711 d5be 55e4 063d
00000270: 7c0c ae3e ddf1 5f3e 5fb0 993e 6963 423e
00000280: 1a58 0fbf 900a 053e 20e0 473e b13e 24be
00000290: cbe8 de3e f32c 85be c5fb b5be 56c5 81be
000002a0: e288 fbbe 614e a43e 363f 0b3f a8b4 a83d
000002b0: 38b5 04bf 8833 b93d 16e1 12bf b41f 8d3e
000002c0: d5fd 9e3e 249f cdbe 5bd0 6b3e 86c2 c03e
000002d0: 0d5f 64be e25b b13d 0845 02bf 943a 8bbe
000002e0: 5441 3e3e cb02 3f3d c3f4 d03b ab0f a5bd
000002f0: 65d9 ff3e f844 043e 4d68 f4be 2683 373e
-0.16169345 -0.16721912 -0.09497191 0.049699936 -0.29639804 -0.004096794 0.16523582 0.5363816
0.37001112 -0.15734865 0.1020247 -0.16185926 0.3135032 -0.51820534 0.4341491 0.042961348
-0.4438984 0.3915228 0.1644268 0.48191062 0.53897214 -0.5021795 -0.046176516 -0.26902062
0.2122851 0.083444595 0.42070863 0.22399385 -0.5128446 0.1654887 0.123671345 -0.1729472
0.5222715 0.5391597 0.19584922 -0.3221052 0.4133907 0.5529418 -0.29320893 0.12818332
-0.5754838 0.07108322 0.54709125 0.15223706 -0.22348654 0.032403532 0.5063707 -0.4462816
0.41130143 0.573402 -0.3238523 -0.21989764 0.0293732 -0.43943718 0.38450304 0.053818572
-0.08318963 -0.0059364378 -0.55787945 0.10736451 -0.21594825 -0.56656826 -0.080567256 0.43924403
0.4111106 0.04639747 -0.4297388 0.52619064 -0.32748774 -0.44131345 -0.038384173 0.017585369
0.10601802 0.57087404 -0.28559354 -0.029961644 -0.3546234 0.42361775 0.42537534 -0.101157
-0.3742604 -0.53499126 0.42261848 -0.009948497 -0.36606082 0.22855332 -0.45281819 -0.5367134
-0.2887263 0.3396776 -0.07087487 -0.0058446894 -0.18144345 -0.34073612 0.42867583 0.2475266
-0.028735051 0.11393763 -0.12091145 0.42223784 0.035941552 -0.54538655 -0.005015271 0.27357322
0.37851194 -0.12541965 -0.11545487 0.24615397 -0.30608863 -0.38359085 -0.13646287 0.27856523
0.2563 -0.16489601 -0.5526732 0.20258278 0.36456874 0.1830907 0.25528416 0.01778633
-0.49177995 0.47927457 0.06868228 0.4252839 0.5274965 0.17777322 0.2459985 -0.5105833
0.54815084 0.26391813 -0.4353782 -0.37777913 -0.5140364 0.30031073 0.27523363 0.32555413
0.03286427 -0.3121621 -0.18067013 -0.30101871 -0.10239837 -0.3199193 -0.040314447 -0.403757
0.016989555 0.32338008 0.05130059 0.18741621 -0.2410786 -0.07923945 0.36729035 -0.065136835
-0.09657155 0.34096426 -0.416146 0.0329326 0.339939 0.21869607 0.30017373 0.18983234
-0.5599381 0.1299231 0.1951909 -0.1603954 0.43536982 -0.26010856 -0.35543647 -0.25345868
-0.4912787 0.32091048 0.5439333 0.082375824 -0.5183902 0.09043032 -0.57374704 0.2756325
0.31053033 -0.40160477 0.230287 0.3764841 -0.22301884 0.086601034 -0.50886583 -0.2719313
0.18579608 0.046633523 0.006376834 -0.08059629 0.49970546 0.12916934 -0.47735825 0.17921123

fc1.bias f4 [64]
00000000: b3f7 00bf a26f c1be 0ca9 543e cc3f ebbe
00000010: 998b 29be df20 0a3f 03f9 aebe 81e9 063b
00000020: 19e1 10bf 676d e8be 4e89 203d 7e29 7b3e
00000030: 0d4a df3e 6750 eabe 841b acbe 869a c5be
00000040: fd27 fdbd 48a1 0ebf d908 8d3e 1567 013f
00000050: 3faa fc3e 87d7 bbbc 51cf 0ebf b20a dfbe
00000060: edb7 de3d c7b5 ecbe 759c dabc 8eba fbbc
00000070: d2af 823e 0fcc ed3e a5de 0ebf bffa 52be
00000080: b813 bcbe 6350 a0be 04ea 2a3c f795 f73d
00000090: db2d 70be 29f9 2b3e 1f7a 06bf 7344 87be
000000a0: 6d23 dbbe 5640 ff3e dcec 0a3f 9961 4c3d
000000b0: 76e9 55be 1c54 7a3e 1eb0 e2be 78f1 5d3e
000000c0: 7809 333e 79eb eb3e 6a05 70be 9eac 4a3e
000000d0: f658 963d ddd6 043e 6ac4 493e b95a cc3e
000000e0: 9535 483d 9499 95be e1fd aebe 418f 0f3e
000000f0: 315c 10bf 9a61 90be 27a0 fb3e 020d a9be
-0.5037796 -0.37780482 0.20767611 -0.4594711 -0.16557159 0.5395641 -0.34174356 0.0020585957
-0.5659347 -0.45395967 0.039193444 0.24527547 0.43611184 -0.45764467 -0.33614743 -0.38594455
-0.12361143 -0.55714846 0.27545813 0.50547916 0.49348637 -0.02292992 -0.5578509 -0.43562847
0.10874925 -0.46232435 -0.026685933 -0.030728605 0.25524765 0.46444747 -0.5580848 -0.20603465
-0.36733794 -0.3131133 0.01043177 0.120891504 -0.23454992 0.16794266 -0.5253009 -0.2641941
-0.42800465 0.49853772 0.5426767 0.049897764 -0.2088984 0.24446148 -0.44274992 0.21674144
0.17484081 0.4607809 -0.23439565 0.1979241 0.07341187 0.12972589 0.19703832 0.39912966
0.048879225 -0.29218733 -0.3417807 0.14019491 -0.5639067 -0.28199464 0.49145624 -0.33017737

fc_value.weight f4 [256, 64]
00000000: 24f7 83bd 2507 293d 76e3 a73c b403 f2bc
00000010: 6c8e 213c 9bd9 093c e2dc f63d 1ab8 99bd
00000020: c58b 01bd 05ef e13c 9c9a 213d d651 843d
00000030: fdb9 9a3d 485d 653d 1b86 84bd 9e01 8fbd
00000040: 7bae fb3b 99d2 5fbc 8bb7 ea3d 5df6 5a3d
00000050: 6c12 f03c fad2 38b9 617f eabd 59bb 43bd
00000060: 3d6c 5bbd 5da1 a33d 0aeb 693c be05 f93d
00000070: d310 a83c 0499 11bd ee7c 4c3d e65d cebd
00000080: 2162 0c3d 2321 0c3d 539a 99bd 9235 59bd
00000090: e138 21bd 586e 14b9 e1aa d2bd f16a f13d
000000a0: ceaf cbbd 7edb 83bd 7936 c73d 4973 8ebd
000000b0: c53d 353d 2e3d 983d 87f4 88bd e38d dabd
000000c0: 3c1c a43d e128 823d 8498 ddbd e761 06bb
000000d0: bc58 8abc 7301 e5bd 0408 763d cda8 caba
000000e0: 8b5e 00bb 6545 753d 7d98 ef3d c810 e0bd
000000f0: 7256 6bbd c056 e4bb bd6f 743d 8c17 d93d
00000100: 2c96 fabc 5787 00be 9730 103c ab31 2f3d
00000110: 1642 17bd 0921 68bd 99da 373b 1d89 763d
00000120: 4f12 e0ba ef35 cbbd 567d 87bd a386 0dbd
00000130: 253f 843d 7f9d 6e3d 194f ee3d 3ddf dd3d
00000140: b492 5cbd f99f c9bc 2444 d73d 600b e6bb
00000150: a5bb 8abd 8a06 883d 5f16 963d 8406 f9bd
00000160: 79f3 a2bd fbee 513b 1f0f a03d 3046 d63d
00000170: 5140 2fbd 301c eabd 036b 273d 04b1 a0bd
00000180: dac8 a63d 34cf 203d f750 3c3d 350d 56bd
00000190: 8024 393c 5314 d83d 2db4 003d 4ab6 9a3d
000001a0: ac81 ce3d 8dfb 67bd 6889 823d f58f 16bd
000001b0: 767d fbbc 0c0e b5bd f8c5 903d ad1b dfbd
000001c0: ec61 2a3d 58f4 b8bd 15c2 1d3d 5a45 cebd
000001d0: 9164 89bb dfcd c6bb f98f e23d 0c4f 933d
000001e0: ff2b dfbc d156 e6bd 6b82 073d 494e 483d
000001f0: 11aa b0bd 7383 ebbd 1af2 2c3d 84cb f73d
00000200: 8ecf ed3d d625 2d3d 2a4a 52bd e434 dabd
00000210: fadd 333b 3378 96bc a6d8 62bd 9099 e53d
00000220: 6126 d9bd 3102 193c 0e84 223a baa9 0f3d
00000230: 921c c53d 0f3f f33c 02fe f03d 5698 e63d
00000240: d5b1 9dbd 2320 693d 7693 3cbd 7e0c 62bd
00000250: 5470 d43d 38dd 7f3c bd30 2e3d cdff 9b3d
00000260: ffdc 63bd 5128 e53d cbfc 50bc 662d e53d
00000270: cd90 97bd ff42 2dbd 9440 f3bc 3f1e cfb9
00000280: c469 46bb 7d60 873d 0b6d 0cbd c43b 643d
00000290: b8d3 83bd e657 8cbd caa9 203d 4a6f d43c
000002a0: 1422 6f3d 4019 91bd 91ad 88bc 26fa aa3d
000002b0: 7fc6 dbbd 066c f2ba 238e 99bd 328a efbd
000002c0: 5ef9 e2bc 0dc9 abbc e5ad 683d aa02 f4bc
000002d0: 7d85 b9bd fe2f 07bc 8c2a 80bd 2e5d 3a3d
000002e0: f184 d13d 363c b3bc b8f0 4fbd b09d d43d
000002f0: 2636 34bc 722d bdbc 6347 bdbc 0878 b2bd
00000300: 261e 973c 32e2 d43c fc34 ff3c df13 e53d
00000310: 3b5d c0bd 6f05 bebd 57f2 70bc fcce 5a3d
00000320: 884a e13d fe06 87bc 47d0 773d 413a b9bd
00000330: 81d9 a2bd d64e 363d ff92 4b3d 369a 31bd
00000340: 4607 c5bd 8337 01bc 6cf8 89bd d514 6f3c
00000350: 9868 d83d 8c45 24bd 8d07 49bd 7a48 26bd
00000360: 97e4 f73c 343a eebc ecc2 e3bd 840c adbd
00000370: 51e3 8e3d 1dd7 013e 57fb c33d 7f95 f53d
00000380: c6fc b93d 04f2 e83d d149 a23b 5f82 be3d
00000390: 3ebd c1bd 6d86 1ebc 62aa babd 2bb5 7cbd
000003a0: 28c0 82bd 5ac8 57bd 241c e4bd 17a0 4abd
000003b0: 6050 be3d 51a9 d2bd 5c43 b33a 7b79 2fbd
000003c0: 6a18 1bbb 00e0 be3c 84ac 8ebd 392f babb
000003d0: d102 1cbd c6a9 d23d 36ca ccbd 225f 063d
000003e0: 2405 95bd c309 be3d 900c 9fbd a721 edbd
000003f0: d15e eabd b706 f2bd 8b85 ce3d be85 863d
-0.06443623 0.04126658 0.020494204 -0.029542781 0.009860616 0.008413698 0.12053849 -0.07505818
-0.031627435 0.027579794 0.039454088 0.064609215 0.07555006 0.055997163 -0.06470891 -0.0698273
0.007680712 -0.01366105 0.11460789 0.053457607 0.02930566 -0.00017626202 -0.11450077 -0.04778609
-0.05357002 0.07989762 0.014277229 0.12159298 0.020515835 -0.035546318 0.04992383 -0.100765035
0.03427327 0.03421129 -0.07500138 -0.053029604 -0.039360885 -0.00014155486 -0.10286499 0.117879756
-0.099456415 -0.06438349 0.09727187 -0.06955583 0.04424836 0.07433544 -0.06687265 -0.10671594
0.08013198 0.06355453 -0.10820106 -0.0020505132 -0.016888015 -0.11181917 0.060066238 -0.0015461684
-0.0019587602 0.059880633 0.11699007 -0.10940701 -0.057455488 -0.006968349 0.059676874 0.10600194
-0.030589186 -0.12551628 0.008800647 0.042771976 -0.03692826 -0.05667213 0.0028053878 0.060189355
-0.00170953 -0.099223964 -0.06615703 -0.034552228 0.06457356 0.05825567 0.116361804 0.10833595
-0.053850845 -0.024612414 0.10511044 -0.007020399 -0.067740716 0.06641872 0.07328486 -0.12159446
-0.07956595 0.0032033313 0.07815384 0.10462606 -0.042785946 -0.114311576 0.04087354 -0.07846263
0.08143778 0.039260104 0.04597565 -0.05225869 0.011300206 0.105507515 0.03142183 0.075543
0.10083327 -0.056636382 0.063738644 -0.036758382 -0.030699473 -0.0884057 0.070690095 -0.108939506
0.04159729 -0.0903098 0.03851517 -0.100718215 -0.0041928967 -0.006067022 0.11062617 0.07192811
-0.027242659 -0.11247028 0.03308336 0.048902784 -0.086261876 -0.11499681 0.042223074 0.120993644
0.116118535 0.04227241 -0.05134026 -0.10654619 0.002744554 -0.018367862 -0.055382393 0.1121093
-0.10603023 0.009338901 0.0006199487 0.035073973 0.0962459 0.029693155 0.11767198 0.112595245
-0.076999344 0.056915414 -0.046039067 -0.055187695 0.103729874 0.0156167075 0.04252695 0.076171495
-0.05563068 0.1118933 -0.012755583 0.111903 -0.074006654 -0.04230022 -0.02969388 -0.00039504652
-0.0030275444 0.066102006 -0.03428368 0.05572106 -0.064368665 -0.06852703 0.039224423 0.025931973
0.05838211 -0.07084894 -0.016684325 0.08348493 -0.107312195 -0.0018495328 -0.074978136 -0.116962805
-0.027706798 -0.020969892 0.056806464 -0.029786427 -0.09058664 -0.008251188 -0.06258115 0.04549902
0.10230435 -0.021879297 -0.050766677 0.10381639 -0.010999238 -0.02309296 -0.023105329 -0.087143004
0.018446993 0.025986765 0.031153195 0.11185431 -0.09392782 -0.0927838 -0.014706216 0.053420052
0.11000544 -0.016482826 0.060501363 -0.09044314 -0.07951642 0.044508778 0.049700733 -0.043359958
-0.09620528 -0.00788677 -0.06736836 0.014592369 0.10566825 -0.040105388 -0.049079467 -0.040596463
0.030260367 -0.029080488 -0.11121163 -0.08449653 0.06976951 0.12679715 0.09569424 0.11991405
0.09081416 0.11374286 0.0049526473 0.0930221 -0.09459923 -0.009675604 -0.09114529 -0.061696213
-0.06384307 -0.052681305 -0.1113818 -0.04946908 0.09292674 -0.10286201 0.0013676691 -0.042840462
-0.0023665675 0.02330017 -0.069664985 -0.005681899 -0.038088623 0.10286288 -0.09999506 0.03280557
-0.07276371 0.09279206 -0.07766068 -0.11578684 -0.11443866 -0.11817687 0.10084065 0.06568478

fc_value.bias f4 [256]
00000000: bbd2 90bc cfba eebd b642 bdbc 7ab1 1abc
00000010: ce55 4abc 5a69 8339 5692 b03d f7a4 8abd
00000020: adfc 98bd fe22 e9bd 3ecb bcbd 7fd3 98bd
00000030: ff50 ebbd a758 163d 9956 1c3d 7905 d2bd
00000040: 7982 d83d 608c 0b3d 79aa 163c 7c8c 943d
00000050: 2b0e 17bd 266b bd3d 35d8 dfbd d008 ea3b
00000060: 0c30 c83d c2fe febd d9ad 43bd 3c1a a6bd
00000070: d907 dc3d 0ded c7bd 8d65 c93d fce4 cbbd
00000080: 8fab b03d 7b68 71bb 815e a2bd 068f 64bc
00000090: 7a05 ba3d 7437 a43d b9ad dabb fd06 9dbd
000000a0: 6029 863d 3182 f2bc 23c6 de3d 423c c23d
000000b0: 014e 6abd 494a 963d e145 b33a e232 72bc
000000c0: f4db 383d d2a2 b5bd 822a b73d 5f11 d83d
000000d0: 6e58 423c 7ee8 b9bd 57b0 013d 0af3 79bd
000000e0: 4b77 30bd 4971 e6bc b75c dc3d b33c 00be
000000f0: 1d05 fa3c 4db4 9fbd 4b48 3cbd a946 3dbd
00000100: 5f69 953d 6e63 8a3d a795 843d 1bb1 d1bd
00000110: 5391 a23d 09e8 cd3d 702f a03d 4dce fabd
00000120: f0da 5a3d 72c9 c63d 1012 80bd 32ae 9bbd
00000130: 8a4c 343d 4437 b53d 3951 673d 7b92 e73d
00000140: a601 0dba 7d88 35bb 4115 ebbd 59e9 cf3d
00000150: 3580 4ebd b6d3 aabc 9d4f cc3d 7087 89bd
00000160: bb77 65bc dc75 f0bb 5c21 34bd 5ced d33d
00000170: f5fd 153b bd8f eb3d 4c8c bcbc 8a0c 883d
00000180: 8507 c0bd c050 25bc 5604 f03d ef6b adbd
00000190: 4c63 e23c 12f0 3fbd bdf1 fdbd 73a4 8b3d
000001a0: 3b68 73bd edcd e93d cb54 c03d a8fb 8cbd
000001b0: c5fd 88bd 4f1b fe3a 671d 97bd 6630 cabd
000001c0: b492 58bd e4c6 c5bd 7ea6 a2bd a1d0 283d
000001d0: bb7e 49bd 5d1a c93d ecde 0cbd 4cf4 b4bc
000001e0: d316 a53d acb6 c23d 52b4 f3bd 7539 80bd
000001f0: 5a27 f63d b25d 73bd 801d 113d ad01 12bd
00000200: dfd2 d83d 3337 503d 9a30 acbd ed4d 1cbb
00000210: 1162 e63d a4ce fdbd 00ac c83c 404a 853d
00000220: 4b9e 58bc 2490 5e3d 0e97 59bd bd61 773d
00000230: f5d5 be3d 0268 b0bd 6938 aabc 711e e5bc
00000240: 4dbe 233c 9d40 823d 26e1 aebc 4062 60bd
00000250: 0d05 b2bd 8db0 14bc a7bf e9bb 7d0b 25bd
00000260: 0044 88bc 4a69 f33c 5737 babd 1e51 a43d
00000270: 9f79 493d 77c0 aaba 9832 c2bd e8b4 213d
00000280: 4c8c adbd 2736 94bd 0010 023d 4972 dabd
00000290: 2371 c0bd b2d8 3ebd 9b5c e9bd 3081 a23d
000002a0: 0c58 873d 96b5 2ebc 8302 acbd aaf3 e93d
000002b0: 73dd b13d b892 b23d 647e 813d b7dc bcbd
000002c0: 216a f4bd c59a d9bd ce59 f7bd 0610 d53c
000002d0: c2c2 0b3c c2fe 66bd 201f e8bd ac20 69bd
000002e0: 5379 a7bd 9220 71bc 5344 cfbd 5308 703d
000002f0: 3c71 97bd 7c4e bcbd 30c6 efbd c606 16bd
00000300: 7d2d 63bd eb98 ba3d 679c 0a3c cccc b2bd
00000310: b04e e8bd 27b5 58bd 9ff6 02bd eb69 2dbc
00000320: 1edd fcbc 437f 173d a096 e1bd f060 97bd
00000330: f270 a83b 61ac 9a3d 768d d43d 2469 c9bd
00000340: c87a ed3d 937f e43d 2ee3 c73b 2ddb 9a3d
00000350: 7206 543d ad58 9fbd 6556 06bd ac81 2fbd
00000360: 2e4d 093d 3949 a4bc 9598 bbbd aee9 e13d
00000370: a0cd 453d ce24 02be a9e1 8d3d 7ce1 ab3b
00000380: 78b7 90bd 4f5a 7a3d fdc0 e73d 2bac ffbc
00000390: 8959 a23d bbfc fa3d cfd5 003e a926 0bbd
000003a0: 2357 a8bd 079c ccbd edda d63c 692b 7b3d
000003b0: b621 163b de3a c3bb d9d9 8d3d 41ea 203d
000003c0: df08 013e a630 3a3d d367 e4bd 14ad 8d3d
000003d0: 38e0 acbd be9f ebbd 2342 a23d 3992 d83d
000003e0: 22ae aebd f518 e33d 3d6d 713d d661 3ebd
000003f0: fd26 f13d 13ef 413d 3902 f63d 8063 e4bd
-0.01767861 -0.11656725 -0.0231031 -0.009441728 -0.012349559 0.0002506476 0.08621661 -0.06769746
-0.07470069 -0.11383627 -0.09218453 -0.07462215 -0.11490058 0.03670564 0.038168523 -0.1025495
0.10571761 0.03406942 0.009195917 0.07253358 -0.036878746 0.092489526 -0.1092991 0.007142164
0.09774789 -0.12450935 -0.047773216 -0.081104726 0.10743684 -0.09762011 0.098338224 -0.09955785
0.08626472 -0.0036835957 -0.079281814 -0.013950115 0.09083076 0.08018389 -0.0066735414 -0.076673485
0.065508604 -0.029603096 0.10877635 0.094841495 -0.057203297 0.073383875 0.0013677442 -0.014782639
0.04513164 -0.08868946 0.089436546 0.10550188 0.011861904 -0.090775475 0.03166231 -0.061022796
-0.043082517 -0.02813019 0.107598715 -0.12523155 0.030520016 -0.077980615 -0.04596738 -0.046209965
0.072954886 0.06757246 0.064738564 -0.10238858 0.07937875 0.10054023 0.07821548 -0.1224638
0.05343145 0.097063914 -0.06253445 -0.076015845 0.044018306 0.08848432 0.056473944 0.11307236
-0.0005378969 -0.0027699762 -0.11478663 0.101519294 -0.050415237 -0.020852905 0.099761225 -0.06715286
-0.014005597 -0.0073382687 -0.043977126 0.10348007 0.0022886966 0.11502025 -0.023016118 0.06643017
-0.09376434 -0.010090053 0.11719577 -0.08467852 0.027635239 -0.04685981 -0.123996235 0.068184756
-0.059425574 0.1141623 0.09391173 -0.06883937 -0.06689028 0.0019386801 -0.07378655 -0.098725125
-0.052874282 -0.09657076 -0.07941912 0.04121459 -0.049193125 0.098194815 -0.034392282 -0.022089146
0.08060994 0.09507498 -0.11899628 -0.06260959 0.120192245 -0.059415527 0.035428524 -0.03564613
0.105870955 0.050833892 -0.084077075 -0.0023850158 0.112491734 -0.12392929 0.024496078 0.06508303
-0.013221334 0.054336682 -0.053122573 0.060395945 0.09318153 -0.08613588 -0.020778852 -0.027968617
0.009994102 0.0635998 -0.021347594 -0.0547812 -0.086923696 -0.009075296 -0.0071334424 -0.04029416
-0.016633987 0.029713292 -0.090925865 0.080232844 0.049188253 -0.001302733 -0.09482306 0.039479166
-0.08474025 -0.07236891 0.03175354 -0.106663294 -0.09396579 -0.046593376 -0.11394616 0.07934797
0.066085905 -0.010663411 -0.083989166 0.11423428 0.08684816 0.08719391 0.06322935 -0.092217855
-0.11934305 -0.10625223 -0.12077676 0.026008617 0.008530321 -0.0563953 -0.113340616 -0.056915924
-0.08177438 -0.014717238 -0.10120454 0.05860169 -0.073946446 -0.09194657 -0.11707723 -0.036627553
-0.055463303 0.09111198 0.008460141 -0.08730468 -0.113431334 -0.052907135 -0.031973477 -0.010584335
-0.030867156 0.0369866 -0.110150576 -0.07391536 0.0051404173 0.0755241 0.10378544 -0.09834507
0.11595684 0.11157145 0.00610008 0.07561336 0.05176396 -0.077805854 -0.032797236 -0.042848274
0.03352087 -0.020054447 -0.09159962 0.11030899 0.048291802 -0.12709352 0.06927807 0.0052453857
-0.07066244 0.06112128 0.113161065 -0.031210026 0.07927234 0.12255236 0.12581562 -0.033972416
-0.08219745 -0.09990697 0.026227439 0.061320696 0.0022908277 -0.0059579452 0.06926317 0.039285902
0.1260104 0.04545655 -0.111526154 0.06917778 -0.08441204 -0.11505078 0.07922771 0.10574765
-0.08529307 0.110887446 0.05894207 -0.046480022 0.117750145 0.04734714 0.12012143 -0.111517906

fc_adv.weight f4 [256, 64]
00000000: 9801 dd3d e33c 80bd 16cf da3d d5ea b63d
00000010: 112d a63d 436e 223d 523e cb3d cc00 d3bb
00000020: 0db6 c53d 8948 f7bd b990 df3d da78 dcbd
00000030: 8db1 c63d a8df f4bd a09e a8bc e926 67bc
00000040: ac8b b8bc be9e 9c3c 7d1e bf3c 1ab4 b63c
00000050: b8e5 21bc d093 9b3d b675 353d 4c6e 103c
00000060: a8db ad3d 0fdc 113c 10b0 dfbd 4e23 39bd
00000070: a027 25bd eedd d5bd b749 ebbd 81bb d1bb
00000080: b909 cb3d 09f1 43bd fa2b fe3d c016 98bd
00000090: e3fb 103d 7526 8bbd c21a 0dbd 4f25 f4bd
000000a0: db55 c4bd 1c41 bbbd 866e e9bd 2577 b13d
000000b0: 0d1e 10bd f394 a03c b1d0 863d 2733 1fb9
000000c0: cdd0 663d 572d e4bb 9d49 eebd 042f ba3d
000000d0: 9552 56bd 09e3 e3bd 488e bebd 4078 c33d
000000e0: 0711 5bbd a266 013a edd4 96bd a331 d2bd
000000f0: 7f90 08bc 59e9 223d 822e 05bd 3a59 f73d
00000100: d3e2 903d f05c aa3d b241 003d cd61 fc3d
00000110: 9351 3b3d 35aa 833d 542c 09bd a0ba e83d
00000120: db55 04bd 926c fabc df20 eb3b 6f2a c23d
00000130: 6245 db3d 998f 8ebd 30d8 8cbd 6607 ecbd
00000140: 5bb8 4d3d bfbb 233d 8c17 5c3d 9d4d ecbd
00000150: e4fb c3bd 4627 69bd 444b e1bd b8c5 593b
00000160: 3e47 dd3c bfec 33bd 9dd2 f13b 66c9 f5bd
00000170: c33a 5c3c ab18 de3d 3dd1 d2bd 69fb a23d
00000180: 0f6b 89bd 9b03 bcbd 152e a03d dd28 75bd
00000190: b3fb 7dbd fc3f 53bd 3069 b3bd 5466 763d
000001a0: f3df 863d ad10 4f3d d74d c1bc f1d5 583d
000001b0: 971d ae3d be7e e9bd d593 a83d be21 813d
000001c0: 2b3b afbd b1a1 ce3d 740b 88bd 94ad d3bd
000001d0: 3581 203d 63cc aabc e19d 033d fe0b b9bd
000001e0: c351 7cbd a184 203d 55d4 bdbd 8654 3fbd
000001f0: 2a81 f63c fa0a e3bd 3368 523d 5705 403d
00000200: 791e be3d 5748 2a3a 865e 6fbd 48b8 9bbd
00000210: df5f fbbc c00e 93bd 109f 94bd 5100 adbc
00000220: 600d 943c 83ab 903d d6d8 d83d 6e88 db3c
00000230: 8e0b 813d 178d 883b 04e0 34bd a06a 263d
00000240: 02bb a8bc 73f7 4fbc 3220 94bd a7bb ee3d
00000250: 3e05 2ebc 85ba 743d f0f2 b0bc 7722 473d
00000260: 982f e2bd 987d 7ebd e368 bdbc 2cf0 25bd
00000270: 1e08 c03d c598 6bbc 6d49 1a3c 34b7 f53d
00000280: 0310 e93c 9de9 0abd 3e51 21bb 2475 113d
00000290: 05a1 e2bd ea44 ca3d 3946 27bd 7faf 1c3b
000002a0: 7ef3 5cbd 9509 7bbd f1ac 82bc daf4 dc3d
000002b0: d9f8 bf3d 2548 bb3c a699 b5bd e31d 343d
000002c0: 14de 5ebd a8da 03be b61d edbd 529d 843d
000002d0: 556a 533d f6b9 71bd 0107 e8bd 74fd 8abc
000002e0: c029 fc3d 3a45 ff3d e05c c8bc 1149 4cbb
000002f0: e8e2 fd3c c056 bfbd ff34 6dbd 24c1 bcbd
00000300: fd75 8fbc a844 ebbb bd1c 8f3d 42da 86bd
00000310: 57b4 133c ecba 813c 8b6e 7ebd 722a 91bd
00000320: 15bd 9abd 340b 8bbd ed4a 00bd cdf3 b63c
00000330: 8736 29bd 92a5 a9bd 6519 1dbc 52a6 013e
00000340: 6a4e edbd 273d bcbd 96ed c8bd 3f2d 9b3d
00000350: 13ba e8bd bd23 fa3d dfe3 f83c d1a7 983d
00000360: b723 50bd 8735 a6bc 5d74 4a3d 4db6 dfbd
00000370: 3084 dfbc 4f35 df3b 7b1f c4bb 4c51 99bd
00000380: 83f3 3abd 7e3c d03d 0d3c 95b9 e174 26bd
00000390: 145d 98bd a9db 0c3d edaf 3c3d 057c a7bc
000003a0: d080 523d d00c a13c 5991 943d b45b a1bd
000003b0: f7f6 bc3d 3da6 413d f7f4 60bd bd8e c43d
000003c0: 9850 e3bd f344 da3d f5a8 fb3c 4cdc 12bd
000003d0: 36cb b5bd 2eb0 97bd 8f93 d13d f507 f83b
000003e0: 23b7 40bd a606 333d 7c07 0e3d b8c6 203d
000003f0: 2324 f13d fe0a c4bb 920b da3c d29d 74bc
0.107913196 -0.06261613 0.1068403 0.089315094 0.081140645 0.039655935 0.09923996 -0.006439304
0.09653864 -0.12074382 0.109162755 -0.10765238 0.09701834 -0.119567215 -0.02058345 -0.014108398
-0.022527538 0.019118663 0.023329968 0.022302676 -0.009881429 0.07596552 0.04430171 0.008815359
0.08489162 0.008902564 -0.10922253 -0.045199685 -0.040320992 -0.1044272 -0.11488669 -0.006400526
0.09913964 -0.04783729 0.124107316 -0.07426214 0.035396468 -0.067944445 -0.034449346 -0.119211785
-0.09586688 -0.09143278 -0.11398034 0.08665303 -0.03518491 0.019602275 0.065827735 -0.00015182477
0.05635147 -0.0069634127 -0.11635134 0.09090999 -0.05232485 -0.11127288 -0.09304482 0.0954442
-0.053483035 0.0004936253 -0.07364831 -0.10263374 -0.008335232 0.03977332 -0.032515056 0.120775655
0.07074513 0.08318508 0.031312652 0.123233415 0.045732092 0.06428949 -0.03348954 0.11363721
-0.03230844 -0.030569348 0.0071755494 0.0948075 0.10706593 -0.06960983 -0.06877172 -0.11524849
0.050224643 0.03997397 0.053733394 -0.11538241 -0.09569529 -0.05692222 -0.11000684 0.0033229422
0.02701151 -0.04392695 0.0073798434 -0.12001304 0.013441744 0.10844549 -0.10293815 0.07958109
-0.06709873 -0.09180375 0.078212894 -0.059853423 -0.062007617 -0.051574692 -0.08760297 0.06015618
0.06585684 0.050553013 -0.023596687 0.052938405 0.085017376 -0.11401127 0.08231322 0.06305264
-0.08556207 0.10089434 -0.066428095 -0.10335842 0.03918572 -0.020849412 0.032132987 -0.090354905
-0.06160141 0.039188985 -0.09269015 -0.046711467 0.030090887 -0.11086078 0.051368903 0.046880092
0.09283156 0.0006495765 -0.058439754 -0.07603508 -0.030685363 -0.07180548 -0.07256901 -0.021118315
0.018072784 0.07063963 0.10588233 0.026798453 0.06301032 0.00416721 -0.04415895 0.04062903
-0.020596985 -0.012693274 -0.07232703 0.116568856 -0.010621367 0.05974819 -0.021600217 0.048616853
-0.11044234 -0.062131494 -0.023121303 -0.04051225 0.09376548 -0.014379685 0.00941692 0.11997834
0.028450018 -0.033914197 -0.0024615075 0.035512105 -0.11065868 0.098764256 -0.040838454 0.0023908315
-0.05394315 -0.061288435 -0.015951606 0.10788889 0.09373636 0.02286155 -0.08867197 0.043973815
-0.05441101 -0.1287638 -0.115779325 0.06475319 0.051615078 -0.059015237 -0.11329461 -0.016966559
0.12312651 0.12464376 -0.024458349 -0.003117148 0.030991986 -0.09342718 -0.05791187 -0.09216526
-0.017512316 -0.0071798153 0.06987903 -0.06584598 0.009015164 0.015836202 -0.06211714 -0.07088174
-0.07555596 -0.06789246 -0.031321455 0.02233305 -0.041311767 -0.08283533 -0.009588574 0.12661102
-0.11587222 -0.091913514 -0.09810941 0.075769894 -0.11363616 0.12213848 0.030382095 0.074538834
-0.05081531 -0.020289196 0.04942738 -0.10923443 -0.027284712 0.006811775 -0.005985198 -0.07486209
-0.045642387 0.10167788 -0.00028464236 -0.04063881 -0.07439628 0.03438917 0.046066213 -0.02044488
0.051392376 0.01965943 0.07254285 -0.07878819 0.09226792 0.047277678 -0.054921117 0.09597538
-0.110993564 0.10657682 0.030720213 -0.035854623 -0.0887665 -0.074066505 0.10233223 0.007569308
-0.047049653 0.043707512 0.034675106 0.039252013 0.11774471 -0.0059827557 0.026616845 -0.014930205

fc_adv.bias f4 [256]
00000000: 5e33 cdbd c04a a43d 7186 ea3d 300e cbbb
00000010: 8735 c53d c7ea 2c3d b647 8abd 89a7 3b3c
00000020: 2ad5 233d 0f94 f13c 6c44 c1bc f977 ca3d
00000030: 0eda 293c c0dc 6ebc 1839 babd 13d9 e13d
00000040: 2c83 bd3c a005 b83d 951a 393a 78a2 403d
00000050: 308e dfbd 1dc3 713c 55b4 ff3d f8b0 943c
00000060: 0fe6 313d c9ab ccbd 56c8 403d 5ec9 18bd
00000070: cc09 663d 7ef3 8cbd 4f7b aa3d 574f d53c
00000080: dc04 eabd 5f4e 803d d9ac d9bc c0fa b23d
00000090: f388 9e3d 81ae 47bd 057a 3d3b 81ca d5bc
000000a0: 36fa cd3d ad91 703d a2be aa3d 224e b1bd
000000b0: 0dda f8bd 9076 98bd f9de 61bd 3567 6dbd
000000c0: d2c8 e73d 12ca cd3d cccc dabb fb9b e6bd
000000d0: bf11 103c c992 b13c 11f1 dcbd 6fb5 ca3d
000000e0: 1074 34bd dc2d db3d f472 943d 557f 083d
000000f0: f4f6 9a3b 9481 ee3d 771a bbbd 391a c0bd
00000100: ce2d 41bc bde1 2ebd b5ab 12bb 5fe7 5cbb
00000110: cf64 db3d cdc4 cd3d 3f09 eb3d 5a8e 72bd
00000120: 8fc6 82bc ad50 6f3d bb25 163d 30d2 f2bc
00000130: aac8 b53c 58df bcbc 8cf6 f8ba 5c4f 74bd
00000140: d2a9 f6bc 0cc9 4ebc 8a9a e53d e03a e5bd
00000150: ae9c c8bd e4b4 63bc f271 83bd ecf6 9a3d
00000160: b90e 05bd adb0 a7bc 7fb4 91bd 2234 683d
00000170: 2eac 983d c518 323d 6ac6 c33d 9f13 adbd
00000180: 810e 17bd e7e7 12bd 5912 abbb d395 a93d
00000190: 2334 f7bd d694 033d c548 e5bd 81d5 693c
000001a0: 9d8c 803d 5038 0bbd c953 bc3c a595 383d
000001b0: 9143 a43d 1fb2 31bd a191 593d c015 96bd
000001c0: 466d be3d 8420 0b3d b9b8 90bd add4 21bd
000001d0: 21de 4ebd e7a4 66bd ca62 883d c677 01be
000001e0: 5c7e 383d 7eb6 6f3d 9429 cc3d 5524 663d
000001f0: 1b10 823c 6dd1 5cbc f70c 543d 158b 2dbd
00000200: 22c8 b23d 8a3d b4bd 3663 073d 5546 db3d
00000210: 5043 93bd 1807 69bd b326 e73d c9fb efbd
00000220: 8a6a ba3c c6f6 623d 3d82 df3c 7f92 a23d
00000230: 4905 a5bd bd13 fe3c aa15 dbbc e374 e13d
00000240: 3b66 f9bd 8e46 eabc cbd9 5abd 17e7 df3d
00000250: fdbd acbb e387 5d3d 6a30 62bd 8068 903d
00000260: 6902 a4bd 0bd1 4fbd 5418 f4bd b7c5 fabc
00000270: 2ad9 893d b143 963d 0ca0 b6bd b0ee 1abd
00000280: 6824 fe3c 7f51 653d 2420 323c e84a 8c3c
00000290: e54a c0bb 9dbd 99bc c283 76bd d4a8 c53d
000002a0: 4758 2e3d cb67 4cbc d044 593d c75f 483d
000002b0: 05c0 6abb 8e17 82bd 3acf b33d 251a be3d
000002c0: e84b 8bbd 0837 f23d ddd4 973d 8c78 17bd
000002d0: 50e5 b43d 77e4 3a3b 8914 593d 6b77 b2bd
000002e0: 9f06 f1bd 3b14 a43d e5d9 e93c d940 2e3b
000002f0: e9f7 3fbd 1602 9ebd 7f63 7fbd 340f 3e3d
00000300: 810d da3d f1f7 b33d ab6a 97bd 882f 553d
00000310: 9342 56bd aad3 7e3d 3be9 bdbc d4d2 673c
00000320: ba86 88bd 9f0d 2cbd 3ffc 3c3d 7ab2 7bbd
00000330: 46e9 b93d 3d9b babd 56ac c63d 90e0 e6bd
00000340: 16fb d1bc d530 8a3d d3bb 21bd 2bbc a4bd
00000350: a923 973d ff55 f6bd dfd9 9dbb 37b2 0d3d
00000360: c712 8b3d b0ce 81bd b1a0 25bd 4cd3 e4bd
00000370: 88ea 9f3c 6ddd ddbd 3b2d c0b8 157b b23d
00000380: 5037 f0bd f7f7 1fbd 1684 dc3d 81c9 cd3d
00000390: 355e 29bd 16c1 c63d 152e 2fbd 483a 473d
000003a0: 84a5 dabd cb09 d2bc e8c6 f03c 8c37 d33d
000003b0: 1bcc 86bb 4d3a 003e 65f0 db3c f5b6 183c
000003c0: 1f08 4ebd 58ee cb3b e1e6 e4bc cc3d ddbc
000003d0: fc47 a4bd 7a3a 953d 2bae d73c 2290 13bd
000003e0: 57ca e73d 3562 debc f14d babb a8d0 973d
000003f0: 95ba c43d 21d2 873c e894 ccbd d908 f23c
-0.10019563 0.0802207 0.11451424 -0.0061967596 0.0962935 0.04221609 -0.06751959 0.011453518
0.03999821 0.029489545 -0.023592196 0.09886164 0.01036693 -0.014578998 -0.09092921 0.11027732
0.023133837 0.08985448 0.0007061151 0.047029942 -0.10915792 0.014755991 0.124855675 0.018150792
0.04343229 -0.09993703 0.047066055 -0.037301414 0.056161687 -0.0688238 0.083243005 0.026038809
-0.11426708 0.06264948 -0.026571678 0.08739233 0.07740965 -0.048750404 0.002891184 -0.026097538
0.100574896 0.058732677 0.083371416 -0.08657481 -0.12150965 -0.07444489 -0.055144284 -0.057959754
0.113176 0.100483075 -0.0066772457 -0.1126022 0.0087932935 0.021676438 -0.10788167 0.09897887
-0.044056 0.10702106 0.07248488 0.03332456 0.004729146 0.11645809 -0.09135907 -0.093800016
-0.011790706 -0.04269575 -0.0022380177 -0.0033707244 0.10712587 0.100473024 0.11476373 -0.05921779
-0.01596382 0.058426548 0.036657076 -0.02964124 0.02219041 -0.023055717 -0.0018994375 -0.059645995
-0.030110274 -0.0126211755 0.112111166 -0.1119287 -0.09795509 -0.013898108 -0.06418218 0.07566628
-0.032484744 -0.020469988 -0.07114505 0.056690343 0.07454716 0.043480653 0.09559329 -0.08451008
-0.036879066 -0.03586569 -0.005220693 0.0828053 -0.12070491 0.032124363 -0.1119552 0.014272095
0.0627682 -0.03398925 0.02298917 0.045064587 0.080207 -0.04338276 0.0531174 -0.07328367
0.09298186 0.033966556 -0.07066483 -0.039509464 -0.050504807 -0.056309607 0.066594675 -0.12643346
0.04504238 0.058523647 0.09968868 0.056186993 0.01587682 -0.013477665 0.051770177 -0.042368967
0.087295786 -0.088008 0.0330536 0.10706774 -0.07190573 -0.05689153 0.11286678 -0.11717946
0.02275588 0.055411123 0.027283782 0.07938098 -0.08057649 0.031015271 -0.026743729 0.110086225
-0.12177702 -0.028598096 -0.05343036 0.10932749 -0.005271672 0.05408467 -0.055221952 0.07051182
-0.08008272 -0.05073647 -0.11918703 -0.030611856 0.06730874 0.0733713 -0.08917245 -0.037825286
0.03102322 0.055985924 0.010871921 0.017125562 -0.005868303 -0.018767172 -0.060184248 0.09651342
0.042564657 -0.012475918 0.05304414 0.048919465 -0.003582002 -0.06352149 0.0877976 0.092823304
-0.06801587 0.11826903 0.07413647 -0.036980197 0.088328004 0.0028517523 0.0529981 -0.087141834
-0.11768841 0.08011671 0.028546283 0.0026588945 -0.046867285 -0.077152416 -0.062350746 0.046401218
0.10647107 0.087875254 -0.07393392 0.052047282 -0.052309584 0.062213577 -0.023182502 0.014149386
-0.06666322 -0.042005178 0.046138998 -0.061449505 0.090776965 -0.091116406 0.09700839 -0.11273301
-0.025632422 0.06747595 -0.039485764 -0.08043703 0.073798485 -0.12028121 -0.004817232 0.034593787
0.06790691 -0.06338251 -0.04043645 -0.11173114 0.019521013 -0.10833249 -9.163698e-05 0.08714882
-0.117293 -0.039054837 0.10767381 0.100481994 -0.04134961 0.09704797 -0.042768557 0.048639566
-0.10676101 -0.025639435 0.02939172 0.10313329 -0.0041136867 0.1252224 0.026848027 0.009320964
-0.050300714 0.006223481 -0.027942123 -0.027007006 -0.080215424 0.07286544 0.026328167 -0.036026128
0.1131789 -0.027146438 -0.005685561 0.07412845 0.096059 0.01657969 -0.09989339 0.029545235

value.weight f4 [1, 256]
00000000: dc7d a23c 9df4 1e3d 0f30 953a 2598 2bbc
00000010: 9ddb e83b 90f5 763d 8d7d 0b3c f81e 3e3d
00000020: f4a1 6abc e591 6f3a 4596 a3bc 8459 673d
00000030: 29e6 73bd d39f 45bd 7d74 863c 41cc 9a3b
00000040: 6d80 22bd e84d 1bbd e877 5f3d a0a6 9cbc
00000050: bebe 043d c63c 973b aa67 1e3d a6a8 6d3a
00000060: 3568 14bd c8fc 73bc c35a 4a3d e00c f8bc
00000070: 91b5 ad3c 185a 7abc c32e 6f3d 081e 273d
00000080: a296 c93b c2fc 6ebd fdda 523d 22f0 9ebc
00000090: d194 a93c 8074 913c 04f2 5c3d f992 7b3d
000000a0: a113 83bc 1683 4f3b 2f96 75bd ea09 1e3d
000000b0: a24c a63c 4ec9 523c 1be5 49bc af50 6dbb
000000c0: a5c8 63bd d301 9e3c 02e1 75bd e926 163d
000000d0: 0669 54bd 6720 953b 09e2 99bc 980e fbbc
000000e0: da1a 7c3d f10d 203d 02dd adbb c407 3dbd
000000f0: 0bfe ca3c 16e8 2b3d 6481 40bd 3241 37bd
00000100: 362d 69bd b2cf a0bc 8021 08bd 24ee 77bd
00000110: 1c58 1dbd 452b 67bc 3a97 4dbd 1f9a 1b3d
00000120: ff3e 29bd 103b 1f3c 8325 9a3b 291e 603d
00000130: 8782 473c 4a18 a53c ec7f af3a 0a5b c33b
00000140: 4e41 e63c 3a90 9cbc 0e85 e33b 1dc2 ccbc
00000150: 44c0 343d 874e 26bd f8c6 21bd 48e2 18bd
00000160: 7642 64bd 475e 303d 1262 b6bc 1446 383d
00000170: ec3d 9c3c 8234 513d ec73 c2bc e5df 6b3d
00000180: 9d55 cc3c c8c8 ecbc 2153 0abd 4bfa 79bd
00000190: 2547 18bc 77af 5e3d b5d8 e5bc 87a6 9a3c
000001a0: 4dfc 72bd eb85 393d 9211 273d ff51 623d
000001b0: f464 14bd 5042 c33b bb39 b63c aa7f 20bd
000001c0: 6bee 123d 57c2 3abd 751e 673d b30f 53bd
000001d0: 551a 16bd 777b 8bbc 091c 083d 5190 b03c
000001e0: a35a 21bc 8894 473d 8493 f8bc f800 613d
000001f0: 4622 323b e56a 96bc 014a 763c 302f de3c
00000200: 566a 4d3d 0bc6 2ebc f927 ff3c 530a 693d
00000210: ed0e 8cbc 5ee6 94bc d9ac 023d c2d1 cfbc
00000220: 379f 95bc 5ad4 80bc e783 fe3b 4a39 29bd
00000230: 2964 c73b c080 7c3b 56ff 06bc 3f9b 5fbc
00000240: 5fbb e7bb 06b1 58bd d34c 0b3c bdbb 34bb
00000250: 791b 6d3c d225 62bd 8d44 28bd 35fd 2fbd
00000260: 116e 1cbd aefa 4ebd 175c 603c 1d12 043c
00000270: 79ae f9bb 8571 adbb 7b67 2bbd 64fb 17bd
00000280: 0ae1 64bd 0b1e 523d c3a0 0bbd 5ef2 663d
00000290: a3af 223c 597f 4dbd 8096 5cbd ce8d 60bd
000002a0: bf2f 203c ebe9 6e3d 7d04 7a3d c5e4 a8bc
000002b0: 8a70 cd3c df5d 7b3d e320 a1bc 69cc 47bd
000002c0: 5bf6 603c 5b4a 283c 144b 413d ca45 503d
000002d0: 0a19 94bb 00f5 313d 557a 003d 2273 613d
000002e0: 2896 5ebd 6020 983c cef9 623d d456 553d
000002f0: b82e 8f3b 1922 413b b2fe 0a3d cfb3 2dbd
00000300: 55e9 d6bc ff20 403d 0402 463c 20b8 4e3d
00000310: 3e82 78bd 6b51 37bd 75db 433d 0d46 c1bc
00000320: 82f0 ed3c 8f9c 9a3b 8d8d 81bc 34bd 10bd
00000330: bfd0 553d 8af7 77bd 30d7 0d3c 83bf 143d
00000340: c094 52bd d4fb 24bc 2a6f 80bd 65c0 7abd
00000350: b991 3d3c 4dbe b63c 8e7b 59bd 3f28 53bc
00000360: 2c9e a73b 0a43 dabc 232f 3d3d fe7e 08bd
00000370: 96b7 453d b894 fcbb b18d 623d ee1f 5e3b
00000380: 4095 9abc 1bfe 71bd 152e 9f3c ec5d f4bc
00000390: 904a f8bb 192b 2e3d 1601 073b 4d26 e03c
000003a0: c882 813d 54da 8cbc cdd7 50bd c01d 803c
000003b0: e11d 6c3d 2d93 603c 9bb0 343d 7703 07bd
000003c0: 9f6b 173d 76e9 64bd 49d0 c73c e9bb 533d
000003d0: df97 093c a1e1 dd3c bc97 103d 3642 803c
000003e0: b7f6 63bd cd60 293c 2bb9 003c 3e62 c03c
000003f0: 525a 35bd 4b62 4c3d 6cdb c9bc 2d53 1dbd
0.019835405 0.0388075 0.001138212 -0.010473286 0.007106258 0.06029278 0.00851382 0.046416253
-0.014320839 0.00091388664 -0.019969115 0.056481853 -0.05954567 -0.048248123 0.016412968 0.004724056
-0.039673258 -0.037916094 0.05455771 -0.019122422 0.03240847 0.004615399 0.03867308 0.0009065963
-0.036232192 -0.014891811 0.049402963 -0.030279577 0.021204742 -0.015280269 0.058394205 0.040800124
0.00615199 -0.058346517 0.051478375 -0.019401614 0.020700844 0.017755747 0.05394174 0.06141946
-0.01600057 0.0031663827 -0.05995768 0.038583674 0.020300213 0.012865378 -0.012322689 -0.0036211421
-0.05561127 0.01928798 -0.060029037 0.0366582 -0.05185797 0.004550982 -0.01878454 -0.030646607
0.061549045 0.039075796 -0.005305887 -0.046149984 0.02477934 0.04196938 -0.046998397 -0.04473991
-0.056927882 -0.019630287 -0.033235073 -0.060529843 -0.038414106 -0.014109437 -0.05019305 0.03798878
-0.041319843 0.009718671 0.004704179 0.054716263 0.012177116 0.020153183 0.0013389564 0.0059617804
0.028107312 -0.019111741 0.0069433516 -0.024994904 0.04412867 -0.040602233 -0.039496392 -0.037325174
-0.055727445 0.04305866 -0.02226356 0.044988707 0.019072495 0.051075466 -0.023736916 0.05758657
0.024943167 -0.028904334 -0.033770684 -0.061029714 -0.009294306 0.054366555 -0.028057436 0.018878235
-0.059322644 0.04529373 0.04078824 0.05525398 -0.03622909 0.005958833 0.022244325 -0.03918425
0.035871904 -0.045595493 0.05642553 -0.051528644 -0.036646206 -0.017026646 0.03322986 0.02155319
-0.00984827 0.048725635 -0.030343778 0.054932564 0.0027181073 -0.018361518 0.015032292 0.02712211
0.050150238 -0.010667334 0.03114699 0.05689461 -0.01709696 -0.018176254 0.03190312 -0.025368575
-0.018264396 -0.015726257 0.007767189 -0.0413144 0.006084938 0.003852889 -0.008239588 -0.013647853
-0.007071897 -0.052903198 0.008502203 -0.002757772 0.014471882 -0.05521185 -0.041081 -0.042966086
-0.038190905 -0.050532036 0.013693831 0.008060959 -0.0076196757 -0.0052930736 -0.041846734 -0.03710498
-0.055878676 0.051298182 -0.03408886 0.056383483 0.00992957 -0.050170276 -0.053854465 -0.054822735
0.009777009 0.05832855 0.061039437 -0.020616898 0.025078077 0.06136882 -0.019669002 -0.048778925
0.013730611 0.010271634 0.04719074 0.050847806 -0.0045195865 0.04344654 0.031366665 0.05504144
-0.05434242 0.018570125 0.055414014 0.05208476 0.004369583 0.0029469787 0.033934303 -0.042407807
-0.026234308 0.046906468 0.0120854415 0.050468564 -0.060671084 -0.04475538 0.047816712 -0.023592973
0.029045347 0.0047183703 -0.015814567 -0.03533669 0.05220103 -0.060538806 0.008657262 0.036315452
-0.05141139 -0.010069806 -0.06271203 -0.061218638 0.0115703875 0.02230754 -0.053096347 -0.012888013
0.005115291 -0.026643295 0.04618753 -0.033324234 0.048270784 -0.0077081583 0.05531091 0.0033893543
-0.018869996 -0.059080224 0.019431153 -0.029829942 -0.007577248 0.04252157 0.0020600013 0.027362013
0.06323773 -0.01719395 -0.050987054 0.015639186 0.057645682 0.013706964 0.044113737 -0.03296229
0.03696787 -0.05588671 0.02439131 0.051692877 0.008398025 0.027085127 0.035300955 0.015656572
-0.055655207 0.0103380205 0.0078566475 0.023484346 -0.04427559 0.049898427 -0.024640761 -0.0384094

adv.weight f4 [14, 256]
00000000: 82e9 71bd f94d d5bc 232a 31bd ed8a a53c
00000010: 8801 693d fa61 0b3b f303 ea3c a5c0 843c
00000020: d585 07bd 6ccf bebc 250c e63c 5d58 30bb
00000030: a707 843c c85e 6fbc b79f 0c3c e74c 353d
00000040: 4ab3 233c 334b a1bc 3f0c 2f3d fb1a 95bc
00000050: 4040 d93c cec2 20bd 256c 693d 4ff4 37bc
00000060: 02c6 79bd 8f98 693b 0166 533a cc5b 36bc
00000070: 21ef 833b 9225 323d 374a 423c 933e 3a3d
00000080: cbef 3cbc 4037 a93c fa67 03bd 1f71 953c
00000090: 075f a53a 95a7 763d 3062 e5bc 8a1a 78bb
000000a0: 2e96 ebbc e1a5 ecbc ee86 6f3d ade0 15bd
000000b0: 5996 32bd f4ee 403d 9b49 76bc 17e7 5a3d
000000c0: f3d2 11bc f755 f0bc 2dcb 3cbd 4bc7 28bd
000000d0: 9e9f ca3a a2bb 413c aff3 83bc 0904 353d
000000e0: 78c6 723d 0745 5ebd c8db da3c 30ef 19bc
000000f0: 7fd8 8abc fb64 a3bb f078 68bd 29e2 94bd
00000100: e8ec 383d 44a5 4b3d 089e cf3c c0bd 5ebd
00000110: 7049 e23c eef2 c2bc feee cbbc 2fa1 353d
00000120: 1691 a4bc 9c7a 5fbd 1dec 9d3c 0acf 2cbd
00000130: 4d78 1a3d b3c1 803b 41b0 5b3d a9e0 e0bc
00000140: 2db6 35bc 3a61 09bd 72be c4bc 97a5 6e3d
00000150: 7616 b03c 4e60 d5bb bd27 3abd 65f9 68bd
00000160: cc37 1839 2a42 e7b9 292a 333c 6094 303d
00000170: e72a 0e3d 32bb 413d 2dbb 1bbd f9e6 6dbd
00000180: 5cae 48bd 7e44 8fbc 2898 b43c 9759 25bd
00000190: f04f b23a 0127 3b3d 0954 b33c 823d 43bd
000001a0: c6d4 16bd eaa7 1e3d 6f9b 18bd 3a1d 333d
000001b0: 36e0 a8bc 33cc 7939 7329 7ebd f380 1c3d
000001c0: f449 073d 101e 5e3d a92e 5cbd d303 d63b
000001d0: c540 643d fb21 55bd 8311 3fbd 071f 6abc
000001e0: 63f3 793b fefc 433d f35c fc3b ff64 943c
000001f0: f056 173d 8d15 a9bc c983 56bd 6d2e 0cbd
00000200: 4816 1bbd 259d 653d 5b9c 05bd 5c7c f33c
00000210: 681d 81bc da3d ac3c 9763 793d c41d 733d
00000220: 6579 09bd 88bc 4f3d 8e93 76bd dde7 82bc
00000230: 9ada 783d 25cf 0f3d f36c 25ba 2ea2 dd3c
00000240: ed39 6abd 0375 a9bc ece2 403c 1fce ddbc
00000250: dc91 54bd 9a41 033d 9fc8 ec3c 03a6 4a3d
00000260: 3238 fc3c 5ec3 6cbb 9a14 5dbd 456c fe3c
00000270: b8d5 3abd e8dd d0bc 7d97 303d a51d 7a3d
00000280: 3f87 4cbd a8d0 03bd da55 35bd 3b02 623c
00000290: 93e3 243d 91c6 d0bc 7498 ae3c 5936 853d
000002a0: 4f41 83bc 02c5 d23c 6188 523d af6d 303c
000002b0: c18c 8fbc 6279 523b 6542 183d ec57 b13b
000002c0: dc01 aebc da77 00bd 3f71 573d 1051 63bd
000002d0: bdb2 0fbc 263a 8e3b c254 2a3d f0d0 203d
000002e0: ab5d 043a f69a b9bc 071e 97bc f929 70bd
000002f0: 9c40 833c e58c 7c3d 0a5d 633d daf5 d2bc
00000300: 16b4 ad3c 4eae 91bc 0ca5 3b3d f4c6 35bc
00000310: bf2a 833c 8544 063b 326d 663d f618 07bd
00000320: 4889 8dbc 8606 69bd 4ff2 adbc ab8d 19bc
00000330: e916 0a3d df61 2b3c 104c 90bc d3db f5ba
00000340: f591 623d b1b6 573d c53f 6ebd 03b3 693c
00000350: 276d fd3b 22e7 23bd 0a46 a43c 9c82 32bd
00000360: 7913 1dbd bd0f 103d e312 993c 9a06 a93c
00000370: 7bb6 4dbd 0380 e7bc 32e3 bdbc 0c5e 2d3c
00000380: 9c7c 7c3d 02c5 1fbd 86dd 743d 3388 44bd
00000390: fc1d 793d 7884 2ebd 2131 80bd a6fe 833c
000003a0: e5b1 77bd bc48 6fbb bd90 4b3b fd26 14bd
000003b0: 945b 67bd 569a b33b 59ac 8d3c 9414 82bc
000003c0: dce2 2dbc 555a 65bd 3d23 8abc 9c68 66bd
000003d0: c9fc 4ebc c9f9 973c b4d2 993c 7ee7 773d
000003e0: 23e8 07bd 809c f9bc 557c 6c3d c0d1 473c
000003f0: ebb7 87bc c057 fa3c cded 733c 6ada e6bc
-0.05906058 -0.026038157 -0.043253075 0.020207847 0.056886226 0.0021268115 0.028566336 0.016205141
-0.033086617 -0.023292266 0.028081963 -0.0026908137 0.01611693 -0.01461 0.008583001 0.044262793
0.009991476 -0.019689178 0.04273629 -0.018201342 0.026519895 -0.03924828 0.0569879 -0.011227681
-0.06097985 0.003564391 0.0008064211 -0.0111302845 0.004026309 0.04349286 0.0118585145 0.04546983
-0.0115317805 0.020656228 -0.03208158 0.018242417 0.0012616821 0.060218412 -0.028000921 -0.0037857615
-0.028758135 -0.028887691 0.05847829 -0.03659122 -0.043600414 0.047102883 -0.015032197 0.05344304
-0.008900392 -0.029337866 -0.0460922 -0.041205686 0.0015458947 0.01182452 -0.016107408 0.0441933
0.059271306 -0.05426505 0.026716128 -0.009395406 -0.016948937 -0.004986403 -0.05675596 -0.07269699
0.045147806 0.049718156 0.02534391 -0.05438018 0.027622908 -0.023797479 -0.024894234 0.04434317
-0.020088714 -0.05456029 0.019277627 -0.042189635 0.037712384 0.0039293407 0.053634886 -0.027450876
-0.011090797 -0.033539988 -0.024016593 0.058263388 0.021495085 -0.0065117246 -0.045448054 -0.056878466
0.00014516636 -0.0004410905 0.010935345 0.04311025 0.034708884 0.047297664 -0.0380203 -0.0580816
-0.048994407 -0.017488714 0.02204521 -0.040368643 0.0013604145 0.045691494 0.021890657 -0.04766608
-0.03682401 0.038734354 -0.037257608 0.043729044 -0.020614725 0.0002382256 -0.062051248 0.038208913
0.03302951 0.05422789 -0.053755436 0.0065312176 0.05572583 -0.05203436 -0.04664756 -0.014289624
0.0038139455 0.047848694 0.00770151 0.018114565 0.036948144 -0.020640159 -0.052371774 -0.034223963
-0.037863046 0.056058068 -0.032619815 0.029722385 -0.015761092 0.021025587 0.060885992 0.05935456
-0.033563036 0.050716907 -0.060199313 -0.015979702 0.06075535 0.035109658 -0.0006310485 0.027054872
-0.05718415 -0.020685678 0.011772852 -0.027075825 -0.051896915 0.032044984 0.028904257 0.049474727
0.030788515 -0.003612719 -0.053974725 0.031057486 -0.045613974 -0.025496438 0.04311322 0.061063427
-0.04993367 -0.032181412 -0.044271328 0.013794477 0.040256094 -0.025485309 0.02131293 0.065045066
-0.016022353 0.025728706 0.051399592 0.010768338 -0.017523171 0.0032115807 0.037172694 0.0054120924
-0.021241121 -0.0313643 0.052598234 -0.05549723 -0.008770642 0.004340428 0.041584738 0.03926176
0.0005049358 -0.022656899 -0.018446935 -0.05863378 0.01602202 0.061657805 0.05550865 -0.025751997
0.021204036 -0.01778331 0.045811698 -0.011094797 0.016011594 0.0020487618 0.05625648 -0.03298279
-0.017277375 -0.056890987 -0.021233706 -0.009372155 0.033713255 0.010460346 -0.017614394 -0.0018757529
0.055314977 0.052664462 -0.058166284 0.014263871 0.0077339592 -0.040015347 0.020052928 -0.04358159
-0.03834865 0.03517126 0.018685764 0.02063303 -0.050222855 -0.028259283 -0.023179624 0.010581505
0.061642274 -0.03900624 0.059781574 -0.047981452 0.06081961 -0.0426068 -0.062593706 0.016112637
-0.060472388 -0.003651186 0.0031061613 -0.036169995 -0.05648382 0.0054810448 0.017294096 -0.015878953
-0.0106131695 -0.05599435 -0.016862506 -0.056252107 -0.012633511 0.018551724 0.018777229 0.060523503
-0.033180367 -0.030470133 0.05773576 0.012196004 -0.016567191 0.03055942 0.014888239 -0.02818032

adv.bias f4 [14]
00000000: 5053 843d c093 b7bc 626e c1bb eaf9 3bbc
00000010: 8c64 10bd dc01 483d 9585 b23c 5de2 5e3d
00000020: e520 423d 7870 6ebc b326 8d3b 56eb f63c
00000030: 6815 1d3c d5be 76bd
0.06461203 -0.02240932 -0.0059030512 -0.011473158 -0.03525214 0.0488299 0.021792213 0.054415096
0.047394652 -0.014553182 0.004307592 0.030141514 0.009587623 -0.060240585
